
>>> train.py: Namespace(attention_dropout=0.1, batch_size=2000, dataset='cora', device=1, dropout=0.1, end_lr=0.0001, epochs=2000, ffn_dim=64, hidden_dim=512, hops=3, log_path='log/nagphormer/cora/default', n_heads=8, n_layers=1, name=None, path='data/nagphormer', patience=30, pe_dim=3, peak_lr=0.01, seed=3407, split=1.0, tot_updates=1000, warmup_updates=400, weight_decay=1e-05)
TransformerModel(
  (att_embeddings_nope): Linear(in_features=1436, out_features=512, bias=True)
  (layers): ModuleList(
    (0): EncoderLayer(
      (self_attention_norm): LayerNorm((512,), eps=1e-05, elementwise_affine=True)
      (self_attention): MultiHeadAttention(
        (linear_q): Linear(in_features=512, out_features=512, bias=True)
        (linear_k): Linear(in_features=512, out_features=512, bias=True)
        (linear_v): Linear(in_features=512, out_features=512, bias=True)
        (att_dropout): Dropout(p=0.1, inplace=False)
        (output_layer): Linear(in_features=512, out_features=512, bias=True)
      )
      (self_attention_dropout): Dropout(p=0.1, inplace=False)
      (ffn_norm): LayerNorm((512,), eps=1e-05, elementwise_affine=True)
      (ffn): FeedForwardNetwork(
        (layer1): Linear(in_features=512, out_features=1024, bias=True)
        (gelu): GELU()
        (layer2): Linear(in_features=1024, out_features=512, bias=True)
      )
      (ffn_dropout): Dropout(p=0.1, inplace=False)
    )
  )
  (final_ln): LayerNorm((512,), eps=1e-05, elementwise_affine=True)
  (out_proj): Linear(in_features=512, out_features=256, bias=True)
  (attn_layer): Linear(in_features=1024, out_features=1, bias=True)
  (Linear1): Linear(in_features=256, out_features=7, bias=True)
)
total params: 2973705
Epoch: 0001 | loss_train: 1.9644 loss_val: 1.8685 | acc_train: 0.1500 acc_val: 0.3380 | f1_train: 0.0961 f1_val: 0.1805
Epoch: 0002 | loss_train: 1.9218 loss_val: 1.8201 | acc_train: 0.2429 acc_val: 0.4180 | f1_train: 0.1645 f1_val: 0.2550
Epoch: 0003 | loss_train: 1.8483 loss_val: 1.7494 | acc_train: 0.3143 acc_val: 0.5420 | f1_train: 0.2601 f1_val: 0.4715
…
>>> run.py: Namespace(dataset='cora', device=1, experiment='default', log_path='log/nagphormer/cora/default', method='nagphormer', path='data/nagphormer', plot_path='plots/nagphormer/cora/default')

>>> Training split = 1.0

>>> train.py: Namespace(attention_dropout=0.1, batch_size=2000, dataset='wisconsin', device=1, dropout=0.1, end_lr=0.0001, epochs=2000, ffn_dim=64, hidden_dim=512, hops=3, log_path='log/nagphormer/wisconsin/default', n_heads=8, n_layers=1, name=None, path='data/nagphormer', patience=30, pe_dim=3, peak_lr=0.01, seed=3407, split=1.0, tot_updates=1000, warmup_updates=400, weight_decay=1e-05)
TransformerModel(
  (att_embeddings_nope): Linear(in_features=1706, out_features=512, bias=True)
  (layers): ModuleList(
    (0): EncoderLayer(
      (self_attention_norm): LayerNorm((512,), eps=1e-05, elementwise_affine=True)
      (self_attention): MultiHeadAttention(
        (linear_q): Linear(in_features=512, out_features=512, bias=True)
        (linear_k): Linear(in_features=512, out_features=512, bias=True)
        (linear_v): Linear(in_features=512, out_features=512, bias=True)
        (att_dropout): Dropout(p=0.1, inplace=False)
        (output_layer): Linear(in_features=512, out_features=512, bias=True)
      )
      (self_attention_dropout): Dropout(p=0.1, inplace=False)
      (ffn_norm): LayerNorm((512,), eps=1e-05, elementwise_affine=True)
      (ffn): FeedForwardNetwork(
        (layer1): Linear(in_features=512, out_features=1024, bias=True)
        (gelu): GELU()
        (layer2): Linear(in_features=1024, out_features=512, bias=True)
      )
      (ffn_dropout): Dropout(p=0.1, inplace=False)
    )
  )
  (final_ln): LayerNorm((512,), eps=1e-05, elementwise_affine=True)
  (out_proj): Linear(in_features=512, out_features=256, bias=True)
  (attn_layer): Linear(in_features=1024, out_features=1, bias=True)
  (Linear1): Linear(in_features=256, out_features=5, bias=True)
)
total params: 3111431
Epoch: 0001 | loss_train: 1.6315 loss_val: 1.5466 | acc_train: 0.1500 acc_val: 0.3000 | f1_train: 0.1211 f1_val: 0.1308
Epoch: 0002 | loss_train: 1.5652 loss_val: 1.4203 | acc_train: 0.2833 acc_val: 0.5000 | f1_train: 0.1653 f1_val: 0.1644
Epoch: 0003 | loss_train: 1.4443 loss_val: 1.2855 | acc_train: 0.4333 acc_val: 0.5125 | f1_train: 0.1550 f1_val: 0.1526
…
Epoch: 0046 | loss_train: 0.0000 loss_val: 2.0999 | acc_train: 1.0000 acc_val: 0.7500 | f1_train: 1.0000 f1_val: 0.7506
Optimization Finished!
Train cost: 10.2192s
Loading 15th epoch
Test set results: loss= 0.6384 accuracy= 0.7910

>>> train.py: Namespace(attention_dropout=0.1, batch_size=2000, dataset='cora', device=1, dropout=0.1, end_lr=0.0001, epochs=2000, ffn_dim=64, hidden_dim=512, hops=3, log_path='log/nagphormer/cora/pe_dim', n_heads=8, n_layers=1, name=None, path='data/nagphormer', patience=30, pe_dim=15, peak_lr=0.01, seed=3407, split=1.0, tot_updates=1000, warmup_updates=400, weight_decay=1e-05)
TransformerModel(
  (att_embeddings_nope): Linear(in_features=1448, out_features=512, bias=True)
  (layers): ModuleList(
    (0): EncoderLayer(
      (self_attention_norm): LayerNorm((512,), eps=1e-05, elementwise_affine=True)
      (self_attention): MultiHeadAttention(
        (linear_q): Linear(in_features=512, out_features=512, bias=True)
        (linear_k): Linear(in_features=512, out_features=512, bias=True)
        (linear_v): Linear(in_features=512, out_features=512, bias=True)
        (att_dropout): Dropout(p=0.1, inplace=False)
        (output_layer): Linear(in_features=512, out_features=512, bias=True)
      )
      (self_attention_dropout): Dropout(p=0.1, inplace=False)
      (ffn_norm): LayerNorm((512,), eps=1e-05, elementwise_affine=True)
      (ffn): FeedForwardNetwork(
        (layer1): Linear(in_features=512, out_features=1024, bias=True)
        (gelu): GELU()
        (layer2): Linear(in_features=1024, out_features=512, bias=True)
      )
      (ffn_dropout): Dropout(p=0.1, inplace=False)
    )
  )
  (final_ln): LayerNorm((512,), eps=1e-05, elementwise_affine=True)
  (out_proj): Linear(in_features=512, out_features=256, bias=True)
  (attn_layer): Linear(in_features=1024, out_features=1, bias=True)
  (Linear1): Linear(in_features=256, out_features=7, bias=True)
)
total params: 2979849
Epoch: 0001 | loss_train: 1.9645 loss_val: 1.9399 | acc_train: 0.0857 acc_val: 0.1520 | f1_train: 0.0627 f1_val: 0.1272
Epoch: 0002 | loss_train: 1.9317 loss_val: 1.8907 | acc_train: 0.1500 acc_val: 0.2940 | f1_train: 0.1218 f1_val: 0.2941
Epoch: 0003 | loss_train: 1.8462 loss_val: 1.8203 | acc_train: 0.4500 acc_val: 0.4520 | f1_train: 0.4214 f1_val: 0.4514
…
Epoch: 0044 | loss_train: 0.0000 loss_val: 1.9965 | acc_train: 1.0000 acc_val: 0.7600 | f1_train: 1.0000 f1_val: 0.7471
Optimization Finished!
Train cost: 10.8504s
Loading 14th epoch
Test set results: loss= 0.6400 accuracy= 0.7880

>>> train.py: Namespace(attention_dropout=0.1, batch_size=2000, dataset='cora', device=1, dropout=0.1, end_lr=0.0001, epochs=2000, ffn_dim=64, hidden_dim=512, hops=3, log_path='log/nagphormer/cora/pe_dim', n_heads=8, n_layers=1, name=None, path='data/nagphormer', patience=30, pe_dim=30, peak_lr=0.01, seed=3407, split=1.0, tot_updates=1000, warmup_updates=400, weight_decay=1e-05)
TransformerModel(
  (att_embeddings_nope): Linear(in_features=1463, out_features=512, bias=True)
  (layers): ModuleList(
    (0): EncoderLayer(
      (self_attention_norm): LayerNorm((512,), eps=1e-05, elementwise_affine=True)
      (self_attention): MultiHeadAttention(
        (linear_q): Linear(in_features=512, out_features=512, bias=True)
        (linear_k): Linear(in_features=512, out_features=512, bias=True)
        (linear_v): Linear(in_features=512, out_features=512, bias=True)
        (att_dropout): Dropout(p=0.1, inplace=False)
        (output_layer): Linear(in_features=512, out_features=512, bias=True)
      )
      (self_attention_dropout): Dropout(p=0.1, inplace=False)
      (ffn_norm): LayerNorm((512,), eps=1e-05, elementwise_affine=True)
      (ffn): FeedForwardNetwork(
        (layer1): Linear(in_features=512, out_features=1024, bias=True)
        (gelu): GELU()
        (layer2): Linear(in_features=1024, out_features=512, bias=True)
      )
      (ffn_dropout): Dropout(p=0.1, inplace=False)
    )
  )
  (final_ln): LayerNorm((512,), eps=1e-05, elementwise_affine=True)
  (out_proj): Linear(in_features=512, out_features=256, bias=True)
  (attn_layer): Linear(in_features=1024, out_features=1, bias=True)
  (Linear1): Linear(in_features=256, out_features=7, bias=True)
)
total params: 2987529
Epoch: 0001 | loss_train: 1.9635 loss_val: 1.9444 | acc_train: 0.0786 acc_val: 0.1460 | f1_train: 0.0558 f1_val: 0.1149
Epoch: 0002 | loss_train: 1.9284 loss_val: 1.8978 | acc_train: 0.1714 acc_val: 0.2720 | f1_train: 0.1549 f1_val: 0.2344
Epoch: 0003 | loss_train: 1.8545 loss_val: 1.8312 | acc_train: 0.3857 acc_val: 0.4700 | f1_train: 0.3439 f1_val: 0.4455
…
Epoch: 0044 | loss_train: 0.0000 loss_val: 1.8880 | acc_train: 1.0000 acc_val: 0.7540 | f1_train: 1.0000 f1_val: 0.7410
Optimization Finished!
Train cost: 10.0371s
Loading 13th epoch
Test set results: loss= 0.6560 accuracy= 0.7960

>>> train.py: Namespace(attention_dropout=0.1, batch_size=2000, dataset='cora', device=1, dropout=0.1, end_lr=0.0001, epochs=2000, ffn_dim=64, hidden_dim=512, hops=3, log_path='log/nagphormer/cora/pe_dim', n_heads=8, n_layers=1, name=None, path='data/nagphormer', patience=30, pe_dim=60, peak_lr=0.01, seed=3407, split=1.0, tot_updates=1000, warmup_updates=400, weight_decay=1e-05)
TransformerModel(
  (att_embeddings_nope): Linear(in_features=1493, out_features=512, bias=True)
  (layers): ModuleList(
    (0): EncoderLayer(
      (self_attention_norm): LayerNorm((512,), eps=1e-05, elementwise_affine=True)
      (self_attention): MultiHeadAttention(
        (linear_q): Linear(in_features=512, out_features=512, bias=True)
        (linear_k): Linear(in_features=512, out_features=512, bias=True)
        (linear_v): Linear(in_features=512, out_features=512, bias=True)
        (att_dropout): Dropout(p=0.1, inplace=False)
        (output_layer): Linear(in_features=512, out_features=512, bias=True)
      )
      (self_attention_dropout): Dropout(p=0.1, inplace=False)
      (ffn_norm): LayerNorm((512,), eps=1e-05, elementwise_affine=True)
      (ffn): FeedForwardNetwork(
        (layer1): Linear(in_features=512, out_features=1024, bias=True)
        (gelu): GELU()
        (layer2): Linear(in_features=1024, out_features=512, bias=True)
      )
      (ffn_dropout): Dropout(p=0.1, inplace=False)
    )
  )
  (final_ln): LayerNorm((512,), eps=1e-05, elementwise_affine=True)
  (out_proj): Linear(in_features=512, out_features=256, bias=True)
  (attn_layer): Linear(in_features=1024, out_features=1, bias=True)
  (Linear1): Linear(in_features=256, out_features=7, bias=True)
)
total params: 3002889
Epoch: 0001 | loss_train: 1.9636 loss_val: 1.9060 | acc_train: 0.1357 acc_val: 0.2360 | f1_train: 0.1181 f1_val: 0.1923
Epoch: 0002 | loss_train: 1.9185 loss_val: 1.8497 | acc_train: 0.2000 acc_val: 0.3880 | f1_train: 0.1890 f1_val: 0.3308
Epoch: 0003 | loss_train: 1.8350 loss_val: 1.7691 | acc_train: 0.4071 acc_val: 0.5680 | f1_train: 0.3805 f1_val: 0.5325
…
Epoch: 0044 | loss_train: 0.0001 loss_val: 2.1122 | acc_train: 1.0000 acc_val: 0.7380 | f1_train: 1.0000 f1_val: 0.7264
Optimization Finished!
Train cost: 9.6759s
Loading 13th epoch
Test set results: loss= 0.6454 accuracy= 0.7990

>>> train.py: Namespace(attention_dropout=0.1, batch_size=2000, dataset='cora', device=1, dropout=0.1, end_lr=0.0001, epochs=2000, ffn_dim=64, hidden_dim=512, hops=3, log_path='log/nagphormer/cora/pe_dim', n_heads=8, n_layers=1, name=None, path='data/nagphormer', patience=30, pe_dim=120, peak_lr=0.01, seed=3407, split=1.0, tot_updates=1000, warmup_updates=400, weight_decay=1e-05)
TransformerModel(
  (att_embeddings_nope): Linear(in_features=1553, out_features=512, bias=True)
  (layers): ModuleList(
    (0): EncoderLayer(
      (self_attention_norm): LayerNorm((512,), eps=1e-05, elementwise_affine=True)
      (self_attention): MultiHeadAttention(
        (linear_q): Linear(in_features=512, out_features=512, bias=True)
        (linear_k): Linear(in_features=512, out_features=512, bias=True)
        (linear_v): Linear(in_features=512, out_features=512, bias=True)
        (att_dropout): Dropout(p=0.1, inplace=False)
        (output_layer): Linear(in_features=512, out_features=512, bias=True)
      )
      (self_attention_dropout): Dropout(p=0.1, inplace=False)
      (ffn_norm): LayerNorm((512,), eps=1e-05, elementwise_affine=True)
      (ffn): FeedForwardNetwork(
        (layer1): Linear(in_features=512, out_features=1024, bias=True)
        (gelu): GELU()
        (layer2): Linear(in_features=1024, out_features=512, bias=True)
      )
      (ffn_dropout): Dropout(p=0.1, inplace=False)
    )
  )
  (final_ln): LayerNorm((512,), eps=1e-05, elementwise_affine=True)
  (out_proj): Linear(in_features=512, out_features=256, bias=True)
  (attn_layer): Linear(in_features=1024, out_features=1, bias=True)
  (Linear1): Linear(in_features=256, out_features=7, bias=True)
)
total params: 3033609
Epoch: 0001 | loss_train: 1.9539 loss_val: 1.8915 | acc_train: 0.1786 acc_val: 0.2660 | f1_train: 0.1072 f1_val: 0.1659
Epoch: 0002 | loss_train: 1.9115 loss_val: 1.8372 | acc_train: 0.2357 acc_val: 0.3580 | f1_train: 0.1413 f1_val: 0.2907
Epoch: 0003 | loss_train: 1.8165 loss_val: 1.7588 | acc_train: 0.3429 acc_val: 0.4980 | f1_train: 0.2991 f1_val: 0.4694
…
Epoch: 0043 | loss_train: 0.0001 loss_val: 2.0239 | acc_train: 1.0000 acc_val: 0.7360 | f1_train: 1.0000 f1_val: 0.7251
Optimization Finished!
Train cost: 10.5961s
Loading 11th epoch
Test set results: loss= 0.7396 accuracy= 0.7780

>>> train.py: Namespace(attention_dropout=0.1, batch_size=2000, dataset='cora', device=1, dropout=0.1, end_lr=0.0001, epochs=2000, ffn_dim=64, hidden_dim=512, hops=3, log_path='log/nagphormer/cora/pe_dim', n_heads=8, n_layers=1, name=None, path='data/nagphormer', patience=30, pe_dim=240, peak_lr=0.01, seed=3407, split=1.0, tot_updates=1000, warmup_updates=400, weight_decay=1e-05)
TransformerModel(
  (att_embeddings_nope): Linear(in_features=1673, out_features=512, bias=True)
  (layers): ModuleList(
    (0): EncoderLayer(
      (self_attention_norm): LayerNorm((512,), eps=1e-05, elementwise_affine=True)
      (self_attention): MultiHeadAttention(
        (linear_q): Linear(in_features=512, out_features=512, bias=True)
        (linear_k): Linear(in_features=512, out_features=512, bias=True)
        (linear_v): Linear(in_features=512, out_features=512, bias=True)
        (att_dropout): Dropout(p=0.1, inplace=False)
        (output_layer): Linear(in_features=512, out_features=512, bias=True)
      )
      (self_attention_dropout): Dropout(p=0.1, inplace=False)
      (ffn_norm): LayerNorm((512,), eps=1e-05, elementwise_affine=True)
      (ffn): FeedForwardNetwork(
        (layer1): Linear(in_features=512, out_features=1024, bias=True)
        (gelu): GELU()
        (layer2): Linear(in_features=1024, out_features=512, bias=True)
      )
      (ffn_dropout): Dropout(p=0.1, inplace=False)
    )
  )
  (final_ln): LayerNorm((512,), eps=1e-05, elementwise_affine=True)
  (out_proj): Linear(in_features=512, out_features=256, bias=True)
  (attn_layer): Linear(in_features=1024, out_features=1, bias=True)
  (Linear1): Linear(in_features=256, out_features=7, bias=True)
)
total params: 3095049
Epoch: 0001 | loss_train: 1.9502 loss_val: 1.9570 | acc_train: 0.1929 acc_val: 0.1740 | f1_train: 0.1667 f1_val: 0.1604
Epoch: 0002 | loss_train: 1.9121 loss_val: 1.9027 | acc_train: 0.2357 acc_val: 0.2760 | f1_train: 0.1938 f1_val: 0.2698
Epoch: 0003 | loss_train: 1.8253 loss_val: 1.8244 | acc_train: 0.4143 acc_val: 0.4240 | f1_train: 0.3892 f1_val: 0.4253
…
Epoch: 0047 | loss_train: 0.0001 loss_val: 2.8881 | acc_train: 1.0000 acc_val: 0.6875 | f1_train: 1.0000 f1_val: 0.4756
Optimization Finished!
Train cost: 10.8493s
Loading 13th epoch
Test set results: loss= 1.1536 accuracy= 0.5686

>>> train.py: Namespace(attention_dropout=0.1, batch_size=2000, dataset='wisconsin', device=1, dropout=0.1, end_lr=0.0001, epochs=2000, ffn_dim=64, hidden_dim=512, hops=3, log_path='log/nagphormer/wisconsin/pe_dim', n_heads=8, n_layers=1, name=None, path='data/nagphormer', patience=30, pe_dim=15, peak_lr=0.01, seed=3407, split=1.0, tot_updates=1000, warmup_updates=400, weight_decay=1e-05)
TransformerModel(
  (att_embeddings_nope): Linear(in_features=1718, out_features=512, bias=True)
  (layers): ModuleList(
    (0): EncoderLayer(
      (self_attention_norm): LayerNorm((512,), eps=1e-05, elementwise_affine=True)
      (self_attention): MultiHeadAttention(
        (linear_q): Linear(in_features=512, out_features=512, bias=True)
        (linear_k): Linear(in_features=512, out_features=512, bias=True)
        (linear_v): Linear(in_features=512, out_features=512, bias=True)
        (att_dropout): Dropout(p=0.1, inplace=False)
        (output_layer): Linear(in_features=512, out_features=512, bias=True)
      )
      (self_attention_dropout): Dropout(p=0.1, inplace=False)
      (ffn_norm): LayerNorm((512,), eps=1e-05, elementwise_affine=True)
      (ffn): FeedForwardNetwork(
        (layer1): Linear(in_features=512, out_features=1024, bias=True)
        (gelu): GELU()
        (layer2): Linear(in_features=1024, out_features=512, bias=True)
      )
      (ffn_dropout): Dropout(p=0.1, inplace=False)
    )
  )
  (final_ln): LayerNorm((512,), eps=1e-05, elementwise_affine=True)
  (out_proj): Linear(in_features=512, out_features=256, bias=True)
  (attn_layer): Linear(in_features=1024, out_features=1, bias=True)
  (Linear1): Linear(in_features=256, out_features=5, bias=True)
)
total params: 3117575
Epoch: 0001 | loss_train: 1.6175 loss_val: 1.5410 | acc_train: 0.2917 acc_val: 0.3750 | f1_train: 0.1442 f1_val: 0.1309
Epoch: 0002 | loss_train: 1.5567 loss_val: 1.4315 | acc_train: 0.3500 acc_val: 0.5500 | f1_train: 0.1282 f1_val: 0.2107
Epoch: 0003 | loss_train: 1.4393 loss_val: 1.3032 | acc_train: 0.5083 acc_val: 0.5875 | f1_train: 0.2198 f1_val: 0.2539
…
Epoch: 0048 | loss_train: 0.0008 loss_val: 2.7633 | acc_train: 1.0000 acc_val: 0.6625 | f1_train: 1.0000 f1_val: 0.4492
Optimization Finished!
Train cost: 10.2468s
Loading 12th epoch
Test set results: loss= 1.1111 accuracy= 0.5686

>>> train.py: Namespace(attention_dropout=0.1, batch_size=2000, dataset='wisconsin', device=1, dropout=0.1, end_lr=0.0001, epochs=2000, ffn_dim=64, hidden_dim=512, hops=3, log_path='log/nagphormer/wisconsin/pe_dim', n_heads=8, n_layers=1, name=None, path='data/nagphormer', patience=30, pe_dim=30, peak_lr=0.01, seed=3407, split=1.0, tot_updates=1000, warmup_updates=400, weight_decay=1e-05)
TransformerModel(
  (att_embeddings_nope): Linear(in_features=1733, out_features=512, bias=True)
  (layers): ModuleList(
    (0): EncoderLayer(
      (self_attention_norm): LayerNorm((512,), eps=1e-05, elementwise_affine=True)
      (self_attention): MultiHeadAttention(
        (linear_q): Linear(in_features=512, out_features=512, bias=True)
        (linear_k): Linear(in_features=512, out_features=512, bias=True)
        (linear_v): Linear(in_features=512, out_features=512, bias=True)
        (att_dropout): Dropout(p=0.1, inplace=False)
        (output_layer): Linear(in_features=512, out_features=512, bias=True)
      )
      (self_attention_dropout): Dropout(p=0.1, inplace=False)
      (ffn_norm): LayerNorm((512,), eps=1e-05, elementwise_affine=True)
      (ffn): FeedForwardNetwork(
        (layer1): Linear(in_features=512, out_features=1024, bias=True)
        (gelu): GELU()
        (layer2): Linear(in_features=1024, out_features=512, bias=True)
      )
      (ffn_dropout): Dropout(p=0.1, inplace=False)
    )
  )
  (final_ln): LayerNorm((512,), eps=1e-05, elementwise_affine=True)
  (out_proj): Linear(in_features=512, out_features=256, bias=True)
  (attn_layer): Linear(in_features=1024, out_features=1, bias=True)
  (Linear1): Linear(in_features=256, out_features=5, bias=True)
)
total params: 3125255
Epoch: 0001 | loss_train: 1.6405 loss_val: 1.5908 | acc_train: 0.1000 acc_val: 0.1875 | f1_train: 0.0579 f1_val: 0.1157
Epoch: 0002 | loss_train: 1.5643 loss_val: 1.4546 | acc_train: 0.1667 acc_val: 0.4375 | f1_train: 0.1257 f1_val: 0.1856
Epoch: 0003 | loss_train: 1.4421 loss_val: 1.3168 | acc_train: 0.4500 acc_val: 0.5750 | f1_train: 0.2349 f1_val: 0.2544
…
Epoch: 0073 | loss_train: 0.0000 loss_val: 3.4705 | acc_train: 1.0000 acc_val: 0.6625 | f1_train: 1.0000 f1_val: 0.4547
Optimization Finished!
Train cost: 12.0601s
Loading 38th epoch
Test set results: loss= 3.8381 accuracy= 0.5490

>>> train.py: Namespace(attention_dropout=0.1, batch_size=2000, dataset='wisconsin', device=1, dropout=0.1, end_lr=0.0001, epochs=2000, ffn_dim=64, hidden_dim=512, hops=3, log_path='log/nagphormer/wisconsin/pe_dim', n_heads=8, n_layers=1, name=None, path='data/nagphormer', patience=30, pe_dim=60, peak_lr=0.01, seed=3407, split=1.0, tot_updates=1000, warmup_updates=400, weight_decay=1e-05)
TransformerModel(
  (att_embeddings_nope): Linear(in_features=1763, out_features=512, bias=True)
  (layers): ModuleList(
    (0): EncoderLayer(
      (self_attention_norm): LayerNorm((512,), eps=1e-05, elementwise_affine=True)
      (self_attention): MultiHeadAttention(
        (linear_q): Linear(in_features=512, out_features=512, bias=True)
        (linear_k): Linear(in_features=512, out_features=512, bias=True)
        (linear_v): Linear(in_features=512, out_features=512, bias=True)
        (att_dropout): Dropout(p=0.1, inplace=False)
        (output_layer): Linear(in_features=512, out_features=512, bias=True)
      )
      (self_attention_dropout): Dropout(p=0.1, inplace=False)
      (ffn_norm): LayerNorm((512,), eps=1e-05, elementwise_affine=True)
      (ffn): FeedForwardNetwork(
        (layer1): Linear(in_features=512, out_features=1024, bias=True)
        (gelu): GELU()
        (layer2): Linear(in_features=1024, out_features=512, bias=True)
      )
      (ffn_dropout): Dropout(p=0.1, inplace=False)
    )
  )
  (final_ln): LayerNorm((512,), eps=1e-05, elementwise_affine=True)
  (out_proj): Linear(in_features=512, out_features=256, bias=True)
  (attn_layer): Linear(in_features=1024, out_features=1, bias=True)
  (Linear1): Linear(in_features=256, out_features=5, bias=True)
)
total params: 3140615
Epoch: 0001 | loss_train: 1.6296 loss_val: 1.5373 | acc_train: 0.1917 acc_val: 0.3625 | f1_train: 0.1435 f1_val: 0.1905
Epoch: 0002 | loss_train: 1.5634 loss_val: 1.4155 | acc_train: 0.3667 acc_val: 0.5375 | f1_train: 0.1797 f1_val: 0.2739
Epoch: 0003 | loss_train: 1.4446 loss_val: 1.2867 | acc_train: 0.4750 acc_val: 0.6000 | f1_train: 0.2039 f1_val: 0.2682
…
Epoch: 0046 | loss_train: 0.0004 loss_val: 3.1189 | acc_train: 1.0000 acc_val: 0.6500 | f1_train: 1.0000 f1_val: 0.4486
Optimization Finished!
Train cost: 11.0480s
Loading 16th epoch
Test set results: loss= 1.4382 accuracy= 0.5686

>>> train.py: Namespace(attention_dropout=0.1, batch_size=2000, dataset='wisconsin', device=1, dropout=0.1, end_lr=0.0001, epochs=2000, ffn_dim=64, hidden_dim=512, hops=3, log_path='log/nagphormer/wisconsin/pe_dim', n_heads=8, n_layers=1, name=None, path='data/nagphormer', patience=30, pe_dim=120, peak_lr=0.01, seed=3407, split=1.0, tot_updates=1000, warmup_updates=400, weight_decay=1e-05)
TransformerModel(
  (att_embeddings_nope): Linear(in_features=1823, out_features=512, bias=True)
  (layers): ModuleList(
    (0): EncoderLayer(
      (self_attention_norm): LayerNorm((512,), eps=1e-05, elementwise_affine=True)
      (self_attention): MultiHeadAttention(
        (linear_q): Linear(in_features=512, out_features=512, bias=True)
        (linear_k): Linear(in_features=512, out_features=512, bias=True)
        (linear_v): Linear(in_features=512, out_features=512, bias=True)
        (att_dropout): Dropout(p=0.1, inplace=False)
        (output_layer): Linear(in_features=512, out_features=512, bias=True)
      )
      (self_attention_dropout): Dropout(p=0.1, inplace=False)
      (ffn_norm): LayerNorm((512,), eps=1e-05, elementwise_affine=True)
      (ffn): FeedForwardNetwork(
        (layer1): Linear(in_features=512, out_features=1024, bias=True)
        (gelu): GELU()
        (layer2): Linear(in_features=1024, out_features=512, bias=True)
      )
      (ffn_dropout): Dropout(p=0.1, inplace=False)
    )
  )
  (final_ln): LayerNorm((512,), eps=1e-05, elementwise_affine=True)
  (out_proj): Linear(in_features=512, out_features=256, bias=True)
  (attn_layer): Linear(in_features=1024, out_features=1, bias=True)
  (Linear1): Linear(in_features=256, out_features=5, bias=True)
)
total params: 3171335
Epoch: 0001 | loss_train: 1.6342 loss_val: 1.5512 | acc_train: 0.1917 acc_val: 0.3875 | f1_train: 0.1097 f1_val: 0.1638
Epoch: 0002 | loss_train: 1.5672 loss_val: 1.4459 | acc_train: 0.3417 acc_val: 0.5000 | f1_train: 0.1472 f1_val: 0.1345
Epoch: 0003 | loss_train: 1.4488 loss_val: 1.3280 | acc_train: 0.4333 acc_val: 0.5625 | f1_train: 0.1488 f1_val: 0.2387
…
Epoch: 0674 | loss_train: 0.0000 loss_val: 3.7298 | acc_train: 1.0000 acc_val: 0.7000 | f1_train: 1.0000 f1_val: 0.4722
Optimization Finished!
Train cost: 22.1407s
Loading 231th epoch
Test set results: loss= 4.7850 accuracy= 0.5490

>>> train.py: Namespace(attention_dropout=0.1, batch_size=2000, dataset='wisconsin', device=1, dropout=0.1, end_lr=0.0001, epochs=2000, ffn_dim=64, hidden_dim=512, hops=3, log_path='log/nagphormer/wisconsin/pe_dim', n_heads=8, n_layers=1, name=None, path='data/nagphormer', patience=30, pe_dim=240, peak_lr=0.01, seed=3407, split=1.0, tot_updates=1000, warmup_updates=400, weight_decay=1e-05)
TransformerModel(
  (att_embeddings_nope): Linear(in_features=1943, out_features=512, bias=True)
  (layers): ModuleList(
    (0): EncoderLayer(
      (self_attention_norm): LayerNorm((512,), eps=1e-05, elementwise_affine=True)
      (self_attention): MultiHeadAttention(
        (linear_q): Linear(in_features=512, out_features=512, bias=True)
        (linear_k): Linear(in_features=512, out_features=512, bias=True)
        (linear_v): Linear(in_features=512, out_features=512, bias=True)
        (att_dropout): Dropout(p=0.1, inplace=False)
        (output_layer): Linear(in_features=512, out_features=512, bias=True)
      )
      (self_attention_dropout): Dropout(p=0.1, inplace=False)
      (ffn_norm): LayerNorm((512,), eps=1e-05, elementwise_affine=True)
      (ffn): FeedForwardNetwork(
        (layer1): Linear(in_features=512, out_features=1024, bias=True)
        (gelu): GELU()
        (layer2): Linear(in_features=1024, out_features=512, bias=True)
      )
      (ffn_dropout): Dropout(p=0.1, inplace=False)
    )
  )
  (final_ln): LayerNorm((512,), eps=1e-05, elementwise_affine=True)
  (out_proj): Linear(in_features=512, out_features=256, bias=True)
  (attn_layer): Linear(in_features=1024, out_features=1, bias=True)
  (Linear1): Linear(in_features=256, out_features=5, bias=True)
)
total params: 3232775
Epoch: 0001 | loss_train: 1.6620 loss_val: 1.5731 | acc_train: 0.0917 acc_val: 0.3125 | f1_train: 0.0520 f1_val: 0.1753
Epoch: 0002 | loss_train: 1.5890 loss_val: 1.4493 | acc_train: 0.2167 acc_val: 0.5500 | f1_train: 0.1379 f1_val: 0.2774
Epoch: 0003 | loss_train: 1.4653 loss_val: 1.3171 | acc_train: 0.4500 acc_val: 0.6000 | f1_train: 0.2272 f1_val: 0.2644
…
Epoch: 0046 | loss_train: 0.0000 loss_val: 2.0999 | acc_train: 1.0000 acc_val: 0.7500 | f1_train: 1.0000 f1_val: 0.7506
Optimization Finished!
Train cost: 7.9255s
Loading 15th epoch
Test set results: loss= 0.6384 accuracy= 0.7910

>>> train.py: Namespace(attention_dropout=0.1, batch_size=2000, dataset='cora', device=1, dropout=0.1, end_lr=0.0001, epochs=2000, ffn_dim=64, hidden_dim=512, hops=3, log_path='log/nagphormer/cora/n_layers', n_heads=8, n_layers=2, name=None, path='data/nagphormer', patience=30, pe_dim=3, peak_lr=0.01, seed=3407, split=1.0, tot_updates=1000, warmup_updates=400, weight_decay=1e-05)
TransformerModel(
  (att_embeddings_nope): Linear(in_features=1436, out_features=512, bias=True)
  (layers): ModuleList(
    (0): EncoderLayer(
      (self_attention_norm): LayerNorm((512,), eps=1e-05, elementwise_affine=True)
      (self_attention): MultiHeadAttention(
        (linear_q): Linear(in_features=512, out_features=512, bias=True)
        (linear_k): Linear(in_features=512, out_features=512, bias=True)
        (linear_v): Linear(in_features=512, out_features=512, bias=True)
        (att_dropout): Dropout(p=0.1, inplace=False)
        (output_layer): Linear(in_features=512, out_features=512, bias=True)
      )
      (self_attention_dropout): Dropout(p=0.1, inplace=False)
      (ffn_norm): LayerNorm((512,), eps=1e-05, elementwise_affine=True)
      (ffn): FeedForwardNetwork(
        (layer1): Linear(in_features=512, out_features=1024, bias=True)
        (gelu): GELU()
        (layer2): Linear(in_features=1024, out_features=512, bias=True)
      )
      (ffn_dropout): Dropout(p=0.1, inplace=False)
    )
    (1): EncoderLayer(
      (self_attention_norm): LayerNorm((512,), eps=1e-05, elementwise_affine=True)
      (self_attention): MultiHeadAttention(
        (linear_q): Linear(in_features=512, out_features=512, bias=True)
        (linear_k): Linear(in_features=512, out_features=512, bias=True)
        (linear_v): Linear(in_features=512, out_features=512, bias=True)
        (att_dropout): Dropout(p=0.1, inplace=False)
        (output_layer): Linear(in_features=512, out_features=512, bias=True)
      )
      (self_attention_dropout): Dropout(p=0.1, inplace=False)
      (ffn_norm): LayerNorm((512,), eps=1e-05, elementwise_affine=True)
      (ffn): FeedForwardNetwork(
        (layer1): Linear(in_features=512, out_features=1024, bias=True)
        (gelu): GELU()
        (layer2): Linear(in_features=1024, out_features=512, bias=True)
      )
      (ffn_dropout): Dropout(p=0.1, inplace=False)
    )
  )
  (final_ln): LayerNorm((512,), eps=1e-05, elementwise_affine=True)
  (out_proj): Linear(in_features=512, out_features=256, bias=True)
  (attn_layer): Linear(in_features=1024, out_features=1, bias=True)
  (Linear1): Linear(in_features=256, out_features=7, bias=True)
)
total params: 5076489
Epoch: 0001 | loss_train: 1.9429 loss_val: 1.9469 | acc_train: 0.1214 acc_val: 0.0940 | f1_train: 0.0547 f1_val: 0.0671
Epoch: 0002 | loss_train: 1.9091 loss_val: 1.9017 | acc_train: 0.1929 acc_val: 0.2800 | f1_train: 0.1227 f1_val: 0.3242
Epoch: 0003 | loss_train: 1.8380 loss_val: 1.8358 | acc_train: 0.4786 acc_val: 0.5120 | f1_train: 0.4713 f1_val: 0.5408
…
Epoch: 0046 | loss_train: 0.0000 loss_val: 2.2538 | acc_train: 1.0000 acc_val: 0.7140 | f1_train: 1.0000 f1_val: 0.7151
Optimization Finished!
Train cost: 7.5364s
Loading 14th epoch
Test set results: loss= 0.7422 accuracy= 0.7770

>>> train.py: Namespace(attention_dropout=0.1, batch_size=2000, dataset='cora', device=1, dropout=0.1, end_lr=0.0001, epochs=2000, ffn_dim=64, hidden_dim=512, hops=3, log_path='log/nagphormer/cora/n_layers', n_heads=8, n_layers=3, name=None, path='data/nagphormer', patience=30, pe_dim=3, peak_lr=0.01, seed=3407, split=1.0, tot_updates=1000, warmup_updates=400, weight_decay=1e-05)
TransformerModel(
  (att_embeddings_nope): Linear(in_features=1436, out_features=512, bias=True)
  (layers): ModuleList(
    (0): EncoderLayer(
      (self_attention_norm): LayerNorm((512,), eps=1e-05, elementwise_affine=True)
      (self_attention): MultiHeadAttention(
        (linear_q): Linear(in_features=512, out_features=512, bias=True)
        (linear_k): Linear(in_features=512, out_features=512, bias=True)
        (linear_v): Linear(in_features=512, out_features=512, bias=True)
        (att_dropout): Dropout(p=0.1, inplace=False)
        (output_layer): Linear(in_features=512, out_features=512, bias=True)
      )
      (self_attention_dropout): Dropout(p=0.1, inplace=False)
      (ffn_norm): LayerNorm((512,), eps=1e-05, elementwise_affine=True)
      (ffn): FeedForwardNetwork(
        (layer1): Linear(in_features=512, out_features=1024, bias=True)
        (gelu): GELU()
        (layer2): Linear(in_features=1024, out_features=512, bias=True)
      )
      (ffn_dropout): Dropout(p=0.1, inplace=False)
    )
    (1): EncoderLayer(
      (self_attention_norm): LayerNorm((512,), eps=1e-05, elementwise_affine=True)
      (self_attention): MultiHeadAttention(
        (linear_q): Linear(in_features=512, out_features=512, bias=True)
        (linear_k): Linear(in_features=512, out_features=512, bias=True)
        (linear_v): Linear(in_features=512, out_features=512, bias=True)
        (att_dropout): Dropout(p=0.1, inplace=False)
        (output_layer): Linear(in_features=512, out_features=512, bias=True)
      )
      (self_attention_dropout): Dropout(p=0.1, inplace=False)
      (ffn_norm): LayerNorm((512,), eps=1e-05, elementwise_affine=True)
      (ffn): FeedForwardNetwork(
        (layer1): Linear(in_features=512, out_features=1024, bias=True)
        (gelu): GELU()
        (layer2): Linear(in_features=1024, out_features=512, bias=True)
      )
      (ffn_dropout): Dropout(p=0.1, inplace=False)
    )
    (2): EncoderLayer(
      (self_attention_norm): LayerNorm((512,), eps=1e-05, elementwise_affine=True)
      (self_attention): MultiHeadAttention(
        (linear_q): Linear(in_features=512, out_features=512, bias=True)
        (linear_k): Linear(in_features=512, out_features=512, bias=True)
        (linear_v): Linear(in_features=512, out_features=512, bias=True)
        (att_dropout): Dropout(p=0.1, inplace=False)
        (output_layer): Linear(in_features=512, out_features=512, bias=True)
      )
      (self_attention_dropout): Dropout(p=0.1, inplace=False)
      (ffn_norm): LayerNorm((512,), eps=1e-05, elementwise_affine=True)
      (ffn): FeedForwardNetwork(
        (layer1): Linear(in_features=512, out_features=1024, bias=True)
        (gelu): GELU()
        (layer2): Linear(in_features=1024, out_features=512, bias=True)
      )
      (ffn_dropout): Dropout(p=0.1, inplace=False)
    )
  )
  (final_ln): LayerNorm((512,), eps=1e-05, elementwise_affine=True)
  (out_proj): Linear(in_features=512, out_features=256, bias=True)
  (attn_layer): Linear(in_features=1024, out_features=1, bias=True)
  (Linear1): Linear(in_features=256, out_features=7, bias=True)
)
total params: 7179273
Epoch: 0001 | loss_train: 1.9574 loss_val: 1.9424 | acc_train: 0.0929 acc_val: 0.1800 | f1_train: 0.0638 f1_val: 0.1409
Epoch: 0002 | loss_train: 1.9260 loss_val: 1.8991 | acc_train: 0.2571 acc_val: 0.4160 | f1_train: 0.2027 f1_val: 0.4051
Epoch: 0003 | loss_train: 1.8601 loss_val: 1.8411 | acc_train: 0.6429 acc_val: 0.6160 | f1_train: 0.6151 f1_val: 0.6220
…
Epoch: 0048 | loss_train: 0.0000 loss_val: 2.1566 | acc_train: 1.0000 acc_val: 0.7380 | f1_train: 1.0000 f1_val: 0.7288
Optimization Finished!
Train cost: 8.3121s
Loading 18th epoch
Test set results: loss= 0.7585 accuracy= 0.7850

>>> train.py: Namespace(attention_dropout=0.1, batch_size=2000, dataset='cora', device=1, dropout=0.1, end_lr=0.0001, epochs=2000, ffn_dim=64, hidden_dim=512, hops=3, log_path='log/nagphormer/cora/n_layers', n_heads=8, n_layers=4, name=None, path='data/nagphormer', patience=30, pe_dim=3, peak_lr=0.01, seed=3407, split=1.0, tot_updates=1000, warmup_updates=400, weight_decay=1e-05)
TransformerModel(
  (att_embeddings_nope): Linear(in_features=1436, out_features=512, bias=True)
  (layers): ModuleList(
    (0): EncoderLayer(
      (self_attention_norm): LayerNorm((512,), eps=1e-05, elementwise_affine=True)
      (self_attention): MultiHeadAttention(
        (linear_q): Linear(in_features=512, out_features=512, bias=True)
        (linear_k): Linear(in_features=512, out_features=512, bias=True)
        (linear_v): Linear(in_features=512, out_features=512, bias=True)
        (att_dropout): Dropout(p=0.1, inplace=False)
        (output_layer): Linear(in_features=512, out_features=512, bias=True)
      )
      (self_attention_dropout): Dropout(p=0.1, inplace=False)
      (ffn_norm): LayerNorm((512,), eps=1e-05, elementwise_affine=True)
      (ffn): FeedForwardNetwork(
        (layer1): Linear(in_features=512, out_features=1024, bias=True)
        (gelu): GELU()
        (layer2): Linear(in_features=1024, out_features=512, bias=True)
      )
      (ffn_dropout): Dropout(p=0.1, inplace=False)
    )
    (1): EncoderLayer(
      (self_attention_norm): LayerNorm((512,), eps=1e-05, elementwise_affine=True)
      (self_attention): MultiHeadAttention(
        (linear_q): Linear(in_features=512, out_features=512, bias=True)
        (linear_k): Linear(in_features=512, out_features=512, bias=True)
        (linear_v): Linear(in_features=512, out_features=512, bias=True)
        (att_dropout): Dropout(p=0.1, inplace=False)
        (output_layer): Linear(in_features=512, out_features=512, bias=True)
      )
      (self_attention_dropout): Dropout(p=0.1, inplace=False)
      (ffn_norm): LayerNorm((512,), eps=1e-05, elementwise_affine=True)
      (ffn): FeedForwardNetwork(
        (layer1): Linear(in_features=512, out_features=1024, bias=True)
        (gelu): GELU()
        (layer2): Linear(in_features=1024, out_features=512, bias=True)
      )
      (ffn_dropout): Dropout(p=0.1, inplace=False)
    )
    (2): EncoderLayer(
      (self_attention_norm): LayerNorm((512,), eps=1e-05, elementwise_affine=True)
      (self_attention): MultiHeadAttention(
        (linear_q): Linear(in_features=512, out_features=512, bias=True)
        (linear_k): Linear(in_features=512, out_features=512, bias=True)
        (linear_v): Linear(in_features=512, out_features=512, bias=True)
        (att_dropout): Dropout(p=0.1, inplace=False)
        (output_layer): Linear(in_features=512, out_features=512, bias=True)
      )
      (self_attention_dropout): Dropout(p=0.1, inplace=False)
      (ffn_norm): LayerNorm((512,), eps=1e-05, elementwise_affine=True)
      (ffn): FeedForwardNetwork(
        (layer1): Linear(in_features=512, out_features=1024, bias=True)
        (gelu): GELU()
        (layer2): Linear(in_features=1024, out_features=512, bias=True)
      )
      (ffn_dropout): Dropout(p=0.1, inplace=False)
    )
    (3): EncoderLayer(
      (self_attention_norm): LayerNorm((512,), eps=1e-05, elementwise_affine=True)
      (self_attention): MultiHeadAttention(
        (linear_q): Linear(in_features=512, out_features=512, bias=True)
        (linear_k): Linear(in_features=512, out_features=512, bias=True)
        (linear_v): Linear(in_features=512, out_features=512, bias=True)
        (att_dropout): Dropout(p=0.1, inplace=False)
        (output_layer): Linear(in_features=512, out_features=512, bias=True)
      )
      (self_attention_dropout): Dropout(p=0.1, inplace=False)
      (ffn_norm): LayerNorm((512,), eps=1e-05, elementwise_affine=True)
      (ffn): FeedForwardNetwork(
        (layer1): Linear(in_features=512, out_features=1024, bias=True)
        (gelu): GELU()
        (layer2): Linear(in_features=1024, out_features=512, bias=True)
      )
      (ffn_dropout): Dropout(p=0.1, inplace=False)
    )
  )
  (final_ln): LayerNorm((512,), eps=1e-05, elementwise_affine=True)
  (out_proj): Linear(in_features=512, out_features=256, bias=True)
  (attn_layer): Linear(in_features=1024, out_features=1, bias=True)
  (Linear1): Linear(in_features=256, out_features=7, bias=True)
)
total params: 9282057
Epoch: 0001 | loss_train: 1.9486 loss_val: 1.9333 | acc_train: 0.1000 acc_val: 0.2200 | f1_train: 0.0354 f1_val: 0.2492
Epoch: 0002 | loss_train: 1.9136 loss_val: 1.8915 | acc_train: 0.3286 acc_val: 0.5420 | f1_train: 0.2903 f1_val: 0.5436
Epoch: 0003 | loss_train: 1.8510 loss_val: 1.8372 | acc_train: 0.7643 acc_val: 0.6240 | f1_train: 0.7518 f1_val: 0.6263
…
Epoch: 0046 | loss_train: 0.0000 loss_val: 2.7530 | acc_train: 1.0000 acc_val: 0.7100 | f1_train: 1.0000 f1_val: 0.6992
Optimization Finished!
Train cost: 8.6422s
Loading 13th epoch
Test set results: loss= 0.9807 accuracy= 0.7850

>>> train.py: Namespace(attention_dropout=0.1, batch_size=2000, dataset='cora', device=1, dropout=0.1, end_lr=0.0001, epochs=2000, ffn_dim=64, hidden_dim=512, hops=3, log_path='log/nagphormer/cora/n_layers', n_heads=8, n_layers=5, name=None, path='data/nagphormer', patience=30, pe_dim=3, peak_lr=0.01, seed=3407, split=1.0, tot_updates=1000, warmup_updates=400, weight_decay=1e-05)
TransformerModel(
  (att_embeddings_nope): Linear(in_features=1436, out_features=512, bias=True)
  (layers): ModuleList(
    (0): EncoderLayer(
      (self_attention_norm): LayerNorm((512,), eps=1e-05, elementwise_affine=True)
      (self_attention): MultiHeadAttention(
        (linear_q): Linear(in_features=512, out_features=512, bias=True)
        (linear_k): Linear(in_features=512, out_features=512, bias=True)
        (linear_v): Linear(in_features=512, out_features=512, bias=True)
        (att_dropout): Dropout(p=0.1, inplace=False)
        (output_layer): Linear(in_features=512, out_features=512, bias=True)
      )
      (self_attention_dropout): Dropout(p=0.1, inplace=False)
      (ffn_norm): LayerNorm((512,), eps=1e-05, elementwise_affine=True)
      (ffn): FeedForwardNetwork(
        (layer1): Linear(in_features=512, out_features=1024, bias=True)
        (gelu): GELU()
        (layer2): Linear(in_features=1024, out_features=512, bias=True)
      )
      (ffn_dropout): Dropout(p=0.1, inplace=False)
    )
    (1): EncoderLayer(
      (self_attention_norm): LayerNorm((512,), eps=1e-05, elementwise_affine=True)
      (self_attention): MultiHeadAttention(
        (linear_q): Linear(in_features=512, out_features=512, bias=True)
        (linear_k): Linear(in_features=512, out_features=512, bias=True)
        (linear_v): Linear(in_features=512, out_features=512, bias=True)
        (att_dropout): Dropout(p=0.1, inplace=False)
        (output_layer): Linear(in_features=512, out_features=512, bias=True)
      )
      (self_attention_dropout): Dropout(p=0.1, inplace=False)
      (ffn_norm): LayerNorm((512,), eps=1e-05, elementwise_affine=True)
      (ffn): FeedForwardNetwork(
        (layer1): Linear(in_features=512, out_features=1024, bias=True)
        (gelu): GELU()
        (layer2): Linear(in_features=1024, out_features=512, bias=True)
      )
      (ffn_dropout): Dropout(p=0.1, inplace=False)
    )
    (2): EncoderLayer(
      (self_attention_norm): LayerNorm((512,), eps=1e-05, elementwise_affine=True)
      (self_attention): MultiHeadAttention(
        (linear_q): Linear(in_features=512, out_features=512, bias=True)
        (linear_k): Linear(in_features=512, out_features=512, bias=True)
        (linear_v): Linear(in_features=512, out_features=512, bias=True)
        (att_dropout): Dropout(p=0.1, inplace=False)
        (output_layer): Linear(in_features=512, out_features=512, bias=True)
      )
      (self_attention_dropout): Dropout(p=0.1, inplace=False)
      (ffn_norm): LayerNorm((512,), eps=1e-05, elementwise_affine=True)
      (ffn): FeedForwardNetwork(
        (layer1): Linear(in_features=512, out_features=1024, bias=True)
        (gelu): GELU()
        (layer2): Linear(in_features=1024, out_features=512, bias=True)
      )
      (ffn_dropout): Dropout(p=0.1, inplace=False)
    )
    (3): EncoderLayer(
      (self_attention_norm): LayerNorm((512,), eps=1e-05, elementwise_affine=True)
      (self_attention): MultiHeadAttention(
        (linear_q): Linear(in_features=512, out_features=512, bias=True)
        (linear_k): Linear(in_features=512, out_features=512, bias=True)
        (linear_v): Linear(in_features=512, out_features=512, bias=True)
        (att_dropout): Dropout(p=0.1, inplace=False)
        (output_layer): Linear(in_features=512, out_features=512, bias=True)
      )
      (self_attention_dropout): Dropout(p=0.1, inplace=False)
      (ffn_norm): LayerNorm((512,), eps=1e-05, elementwise_affine=True)
      (ffn): FeedForwardNetwork(
        (layer1): Linear(in_features=512, out_features=1024, bias=True)
        (gelu): GELU()
        (layer2): Linear(in_features=1024, out_features=512, bias=True)
      )
      (ffn_dropout): Dropout(p=0.1, inplace=False)
    )
    (4): EncoderLayer(
      (self_attention_norm): LayerNorm((512,), eps=1e-05, elementwise_affine=True)
      (self_attention): MultiHeadAttention(
        (linear_q): Linear(in_features=512, out_features=512, bias=True)
        (linear_k): Linear(in_features=512, out_features=512, bias=True)
        (linear_v): Linear(in_features=512, out_features=512, bias=True)
        (att_dropout): Dropout(p=0.1, inplace=False)
        (output_layer): Linear(in_features=512, out_features=512, bias=True)
      )
      (self_attention_dropout): Dropout(p=0.1, inplace=False)
      (ffn_norm): LayerNorm((512,), eps=1e-05, elementwise_affine=True)
      (ffn): FeedForwardNetwork(
        (layer1): Linear(in_features=512, out_features=1024, bias=True)
        (gelu): GELU()
        (layer2): Linear(in_features=1024, out_features=512, bias=True)
      )
      (ffn_dropout): Dropout(p=0.1, inplace=False)
    )
  )
  (final_ln): LayerNorm((512,), eps=1e-05, elementwise_affine=True)
  (out_proj): Linear(in_features=512, out_features=256, bias=True)
  (attn_layer): Linear(in_features=1024, out_features=1, bias=True)
  (Linear1): Linear(in_features=256, out_features=7, bias=True)
)
total params: 11384841
Epoch: 0001 | loss_train: 1.9477 loss_val: 1.9318 | acc_train: 0.1643 acc_val: 0.2080 | f1_train: 0.0980 f1_val: 0.1915
Epoch: 0002 | loss_train: 1.9138 loss_val: 1.8927 | acc_train: 0.4000 acc_val: 0.4480 | f1_train: 0.3299 f1_val: 0.4370
Epoch: 0003 | loss_train: 1.8530 loss_val: 1.8356 | acc_train: 0.7143 acc_val: 0.6200 | f1_train: 0.6995 f1_val: 0.6076
…
Epoch: 0047 | loss_train: 0.0001 loss_val: 2.8881 | acc_train: 1.0000 acc_val: 0.6875 | f1_train: 1.0000 f1_val: 0.4756
Optimization Finished!
Train cost: 7.2877s
Loading 13th epoch
Test set results: loss= 1.1536 accuracy= 0.5686

>>> train.py: Namespace(attention_dropout=0.1, batch_size=2000, dataset='wisconsin', device=1, dropout=0.1, end_lr=0.0001, epochs=2000, ffn_dim=64, hidden_dim=512, hops=3, log_path='log/nagphormer/wisconsin/n_layers', n_heads=8, n_layers=2, name=None, path='data/nagphormer', patience=30, pe_dim=3, peak_lr=0.01, seed=3407, split=1.0, tot_updates=1000, warmup_updates=400, weight_decay=1e-05)
TransformerModel(
  (att_embeddings_nope): Linear(in_features=1706, out_features=512, bias=True)
  (layers): ModuleList(
    (0): EncoderLayer(
      (self_attention_norm): LayerNorm((512,), eps=1e-05, elementwise_affine=True)
      (self_attention): MultiHeadAttention(
        (linear_q): Linear(in_features=512, out_features=512, bias=True)
        (linear_k): Linear(in_features=512, out_features=512, bias=True)
        (linear_v): Linear(in_features=512, out_features=512, bias=True)
        (att_dropout): Dropout(p=0.1, inplace=False)
        (output_layer): Linear(in_features=512, out_features=512, bias=True)
      )
      (self_attention_dropout): Dropout(p=0.1, inplace=False)
      (ffn_norm): LayerNorm((512,), eps=1e-05, elementwise_affine=True)
      (ffn): FeedForwardNetwork(
        (layer1): Linear(in_features=512, out_features=1024, bias=True)
        (gelu): GELU()
        (layer2): Linear(in_features=1024, out_features=512, bias=True)
      )
      (ffn_dropout): Dropout(p=0.1, inplace=False)
    )
    (1): EncoderLayer(
      (self_attention_norm): LayerNorm((512,), eps=1e-05, elementwise_affine=True)
      (self_attention): MultiHeadAttention(
        (linear_q): Linear(in_features=512, out_features=512, bias=True)
        (linear_k): Linear(in_features=512, out_features=512, bias=True)
        (linear_v): Linear(in_features=512, out_features=512, bias=True)
        (att_dropout): Dropout(p=0.1, inplace=False)
        (output_layer): Linear(in_features=512, out_features=512, bias=True)
      )
      (self_attention_dropout): Dropout(p=0.1, inplace=False)
      (ffn_norm): LayerNorm((512,), eps=1e-05, elementwise_affine=True)
      (ffn): FeedForwardNetwork(
        (layer1): Linear(in_features=512, out_features=1024, bias=True)
        (gelu): GELU()
        (layer2): Linear(in_features=1024, out_features=512, bias=True)
      )
      (ffn_dropout): Dropout(p=0.1, inplace=False)
    )
  )
  (final_ln): LayerNorm((512,), eps=1e-05, elementwise_affine=True)
  (out_proj): Linear(in_features=512, out_features=256, bias=True)
  (attn_layer): Linear(in_features=1024, out_features=1, bias=True)
  (Linear1): Linear(in_features=256, out_features=5, bias=True)
)
total params: 5214215
Epoch: 0001 | loss_train: 1.5998 loss_val: 1.5528 | acc_train: 0.2083 acc_val: 0.4375 | f1_train: 0.1631 f1_val: 0.2690
Epoch: 0002 | loss_train: 1.5389 loss_val: 1.4422 | acc_train: 0.5167 acc_val: 0.5375 | f1_train: 0.3382 f1_val: 0.2421
Epoch: 0003 | loss_train: 1.4339 loss_val: 1.3286 | acc_train: 0.6333 acc_val: 0.5375 | f1_train: 0.3448 f1_val: 0.2398
…
Epoch: 0057 | loss_train: 0.0000 loss_val: 2.9556 | acc_train: 1.0000 acc_val: 0.7125 | f1_train: 1.0000 f1_val: 0.4985
Optimization Finished!
Train cost: 6.7473s
Loading 26th epoch
Test set results: loss= 2.8114 accuracy= 0.5294

>>> train.py: Namespace(attention_dropout=0.1, batch_size=2000, dataset='wisconsin', device=1, dropout=0.1, end_lr=0.0001, epochs=2000, ffn_dim=64, hidden_dim=512, hops=3, log_path='log/nagphormer/wisconsin/n_layers', n_heads=8, n_layers=3, name=None, path='data/nagphormer', patience=30, pe_dim=3, peak_lr=0.01, seed=3407, split=1.0, tot_updates=1000, warmup_updates=400, weight_decay=1e-05)
TransformerModel(
  (att_embeddings_nope): Linear(in_features=1706, out_features=512, bias=True)
  (layers): ModuleList(
    (0): EncoderLayer(
      (self_attention_norm): LayerNorm((512,), eps=1e-05, elementwise_affine=True)
      (self_attention): MultiHeadAttention(
        (linear_q): Linear(in_features=512, out_features=512, bias=True)
        (linear_k): Linear(in_features=512, out_features=512, bias=True)
        (linear_v): Linear(in_features=512, out_features=512, bias=True)
        (att_dropout): Dropout(p=0.1, inplace=False)
        (output_layer): Linear(in_features=512, out_features=512, bias=True)
      )
      (self_attention_dropout): Dropout(p=0.1, inplace=False)
      (ffn_norm): LayerNorm((512,), eps=1e-05, elementwise_affine=True)
      (ffn): FeedForwardNetwork(
        (layer1): Linear(in_features=512, out_features=1024, bias=True)
        (gelu): GELU()
        (layer2): Linear(in_features=1024, out_features=512, bias=True)
      )
      (ffn_dropout): Dropout(p=0.1, inplace=False)
    )
    (1): EncoderLayer(
      (self_attention_norm): LayerNorm((512,), eps=1e-05, elementwise_affine=True)
      (self_attention): MultiHeadAttention(
        (linear_q): Linear(in_features=512, out_features=512, bias=True)
        (linear_k): Linear(in_features=512, out_features=512, bias=True)
        (linear_v): Linear(in_features=512, out_features=512, bias=True)
        (att_dropout): Dropout(p=0.1, inplace=False)
        (output_layer): Linear(in_features=512, out_features=512, bias=True)
      )
      (self_attention_dropout): Dropout(p=0.1, inplace=False)
      (ffn_norm): LayerNorm((512,), eps=1e-05, elementwise_affine=True)
      (ffn): FeedForwardNetwork(
        (layer1): Linear(in_features=512, out_features=1024, bias=True)
        (gelu): GELU()
        (layer2): Linear(in_features=1024, out_features=512, bias=True)
      )
      (ffn_dropout): Dropout(p=0.1, inplace=False)
    )
    (2): EncoderLayer(
      (self_attention_norm): LayerNorm((512,), eps=1e-05, elementwise_affine=True)
      (self_attention): MultiHeadAttention(
        (linear_q): Linear(in_features=512, out_features=512, bias=True)
        (linear_k): Linear(in_features=512, out_features=512, bias=True)
        (linear_v): Linear(in_features=512, out_features=512, bias=True)
        (att_dropout): Dropout(p=0.1, inplace=False)
        (output_layer): Linear(in_features=512, out_features=512, bias=True)
      )
      (self_attention_dropout): Dropout(p=0.1, inplace=False)
      (ffn_norm): LayerNorm((512,), eps=1e-05, elementwise_affine=True)
      (ffn): FeedForwardNetwork(
        (layer1): Linear(in_features=512, out_features=1024, bias=True)
        (gelu): GELU()
        (layer2): Linear(in_features=1024, out_features=512, bias=True)
      )
      (ffn_dropout): Dropout(p=0.1, inplace=False)
    )
  )
  (final_ln): LayerNorm((512,), eps=1e-05, elementwise_affine=True)
  (out_proj): Linear(in_features=512, out_features=256, bias=True)
  (attn_layer): Linear(in_features=1024, out_features=1, bias=True)
  (Linear1): Linear(in_features=256, out_features=5, bias=True)
)
total params: 7316999
Epoch: 0001 | loss_train: 1.5899 loss_val: 1.5220 | acc_train: 0.2333 acc_val: 0.5500 | f1_train: 0.1515 f1_val: 0.3216
Epoch: 0002 | loss_train: 1.5320 loss_val: 1.4271 | acc_train: 0.4750 acc_val: 0.5125 | f1_train: 0.2727 f1_val: 0.2248
Epoch: 0003 | loss_train: 1.4433 loss_val: 1.3348 | acc_train: 0.5333 acc_val: 0.5375 | f1_train: 0.2455 f1_val: 0.2389
…
Epoch: 0056 | loss_train: 0.0001 loss_val: 4.1874 | acc_train: 1.0000 acc_val: 0.6125 | f1_train: 1.0000 f1_val: 0.4845
Optimization Finished!
Train cost: 9.1318s
Loading 26th epoch
Test set results: loss= 2.6624 accuracy= 0.6078

>>> train.py: Namespace(attention_dropout=0.1, batch_size=2000, dataset='wisconsin', device=1, dropout=0.1, end_lr=0.0001, epochs=2000, ffn_dim=64, hidden_dim=512, hops=3, log_path='log/nagphormer/wisconsin/n_layers', n_heads=8, n_layers=4, name=None, path='data/nagphormer', patience=30, pe_dim=3, peak_lr=0.01, seed=3407, split=1.0, tot_updates=1000, warmup_updates=400, weight_decay=1e-05)
TransformerModel(
  (att_embeddings_nope): Linear(in_features=1706, out_features=512, bias=True)
  (layers): ModuleList(
    (0): EncoderLayer(
      (self_attention_norm): LayerNorm((512,), eps=1e-05, elementwise_affine=True)
      (self_attention): MultiHeadAttention(
        (linear_q): Linear(in_features=512, out_features=512, bias=True)
        (linear_k): Linear(in_features=512, out_features=512, bias=True)
        (linear_v): Linear(in_features=512, out_features=512, bias=True)
        (att_dropout): Dropout(p=0.1, inplace=False)
        (output_layer): Linear(in_features=512, out_features=512, bias=True)
      )
      (self_attention_dropout): Dropout(p=0.1, inplace=False)
      (ffn_norm): LayerNorm((512,), eps=1e-05, elementwise_affine=True)
      (ffn): FeedForwardNetwork(
        (layer1): Linear(in_features=512, out_features=1024, bias=True)
        (gelu): GELU()
        (layer2): Linear(in_features=1024, out_features=512, bias=True)
      )
      (ffn_dropout): Dropout(p=0.1, inplace=False)
    )
    (1): EncoderLayer(
      (self_attention_norm): LayerNorm((512,), eps=1e-05, elementwise_affine=True)
      (self_attention): MultiHeadAttention(
        (linear_q): Linear(in_features=512, out_features=512, bias=True)
        (linear_k): Linear(in_features=512, out_features=512, bias=True)
        (linear_v): Linear(in_features=512, out_features=512, bias=True)
        (att_dropout): Dropout(p=0.1, inplace=False)
        (output_layer): Linear(in_features=512, out_features=512, bias=True)
      )
      (self_attention_dropout): Dropout(p=0.1, inplace=False)
      (ffn_norm): LayerNorm((512,), eps=1e-05, elementwise_affine=True)
      (ffn): FeedForwardNetwork(
        (layer1): Linear(in_features=512, out_features=1024, bias=True)
        (gelu): GELU()
        (layer2): Linear(in_features=1024, out_features=512, bias=True)
      )
      (ffn_dropout): Dropout(p=0.1, inplace=False)
    )
    (2): EncoderLayer(
      (self_attention_norm): LayerNorm((512,), eps=1e-05, elementwise_affine=True)
      (self_attention): MultiHeadAttention(
        (linear_q): Linear(in_features=512, out_features=512, bias=True)
        (linear_k): Linear(in_features=512, out_features=512, bias=True)
        (linear_v): Linear(in_features=512, out_features=512, bias=True)
        (att_dropout): Dropout(p=0.1, inplace=False)
        (output_layer): Linear(in_features=512, out_features=512, bias=True)
      )
      (self_attention_dropout): Dropout(p=0.1, inplace=False)
      (ffn_norm): LayerNorm((512,), eps=1e-05, elementwise_affine=True)
      (ffn): FeedForwardNetwork(
        (layer1): Linear(in_features=512, out_features=1024, bias=True)
        (gelu): GELU()
        (layer2): Linear(in_features=1024, out_features=512, bias=True)
      )
      (ffn_dropout): Dropout(p=0.1, inplace=False)
    )
    (3): EncoderLayer(
      (self_attention_norm): LayerNorm((512,), eps=1e-05, elementwise_affine=True)
      (self_attention): MultiHeadAttention(
        (linear_q): Linear(in_features=512, out_features=512, bias=True)
        (linear_k): Linear(in_features=512, out_features=512, bias=True)
        (linear_v): Linear(in_features=512, out_features=512, bias=True)
        (att_dropout): Dropout(p=0.1, inplace=False)
        (output_layer): Linear(in_features=512, out_features=512, bias=True)
      )
      (self_attention_dropout): Dropout(p=0.1, inplace=False)
      (ffn_norm): LayerNorm((512,), eps=1e-05, elementwise_affine=True)
      (ffn): FeedForwardNetwork(
        (layer1): Linear(in_features=512, out_features=1024, bias=True)
        (gelu): GELU()
        (layer2): Linear(in_features=1024, out_features=512, bias=True)
      )
      (ffn_dropout): Dropout(p=0.1, inplace=False)
    )
  )
  (final_ln): LayerNorm((512,), eps=1e-05, elementwise_affine=True)
  (out_proj): Linear(in_features=512, out_features=256, bias=True)
  (attn_layer): Linear(in_features=1024, out_features=1, bias=True)
  (Linear1): Linear(in_features=256, out_features=5, bias=True)
)
total params: 9419783
Epoch: 0001 | loss_train: 1.6114 loss_val: 1.5292 | acc_train: 0.2917 acc_val: 0.5125 | f1_train: 0.1607 f1_val: 0.1355
Epoch: 0002 | loss_train: 1.5473 loss_val: 1.4326 | acc_train: 0.4250 acc_val: 0.5125 | f1_train: 0.1524 f1_val: 0.1355
Epoch: 0003 | loss_train: 1.4600 loss_val: 1.3472 | acc_train: 0.4167 acc_val: 0.5625 | f1_train: 0.1176 f1_val: 0.2068
…
Epoch: 0071 | loss_train: 0.0000 loss_val: 4.3026 | acc_train: 1.0000 acc_val: 0.6625 | f1_train: 1.0000 f1_val: 0.5420
Optimization Finished!
Train cost: 9.5485s
Loading 31th epoch
Test set results: loss= 3.1931 accuracy= 0.6078

>>> train.py: Namespace(attention_dropout=0.1, batch_size=2000, dataset='wisconsin', device=1, dropout=0.1, end_lr=0.0001, epochs=2000, ffn_dim=64, hidden_dim=512, hops=3, log_path='log/nagphormer/wisconsin/n_layers', n_heads=8, n_layers=5, name=None, path='data/nagphormer', patience=30, pe_dim=3, peak_lr=0.01, seed=3407, split=1.0, tot_updates=1000, warmup_updates=400, weight_decay=1e-05)
TransformerModel(
  (att_embeddings_nope): Linear(in_features=1706, out_features=512, bias=True)
  (layers): ModuleList(
    (0): EncoderLayer(
      (self_attention_norm): LayerNorm((512,), eps=1e-05, elementwise_affine=True)
      (self_attention): MultiHeadAttention(
        (linear_q): Linear(in_features=512, out_features=512, bias=True)
        (linear_k): Linear(in_features=512, out_features=512, bias=True)
        (linear_v): Linear(in_features=512, out_features=512, bias=True)
        (att_dropout): Dropout(p=0.1, inplace=False)
        (output_layer): Linear(in_features=512, out_features=512, bias=True)
      )
      (self_attention_dropout): Dropout(p=0.1, inplace=False)
      (ffn_norm): LayerNorm((512,), eps=1e-05, elementwise_affine=True)
      (ffn): FeedForwardNetwork(
        (layer1): Linear(in_features=512, out_features=1024, bias=True)
        (gelu): GELU()
        (layer2): Linear(in_features=1024, out_features=512, bias=True)
      )
      (ffn_dropout): Dropout(p=0.1, inplace=False)
    )
    (1): EncoderLayer(
      (self_attention_norm): LayerNorm((512,), eps=1e-05, elementwise_affine=True)
      (self_attention): MultiHeadAttention(
        (linear_q): Linear(in_features=512, out_features=512, bias=True)
        (linear_k): Linear(in_features=512, out_features=512, bias=True)
        (linear_v): Linear(in_features=512, out_features=512, bias=True)
        (att_dropout): Dropout(p=0.1, inplace=False)
        (output_layer): Linear(in_features=512, out_features=512, bias=True)
      )
      (self_attention_dropout): Dropout(p=0.1, inplace=False)
      (ffn_norm): LayerNorm((512,), eps=1e-05, elementwise_affine=True)
      (ffn): FeedForwardNetwork(
        (layer1): Linear(in_features=512, out_features=1024, bias=True)
        (gelu): GELU()
        (layer2): Linear(in_features=1024, out_features=512, bias=True)
      )
      (ffn_dropout): Dropout(p=0.1, inplace=False)
    )
    (2): EncoderLayer(
      (self_attention_norm): LayerNorm((512,), eps=1e-05, elementwise_affine=True)
      (self_attention): MultiHeadAttention(
        (linear_q): Linear(in_features=512, out_features=512, bias=True)
        (linear_k): Linear(in_features=512, out_features=512, bias=True)
        (linear_v): Linear(in_features=512, out_features=512, bias=True)
        (att_dropout): Dropout(p=0.1, inplace=False)
        (output_layer): Linear(in_features=512, out_features=512, bias=True)
      )
      (self_attention_dropout): Dropout(p=0.1, inplace=False)
      (ffn_norm): LayerNorm((512,), eps=1e-05, elementwise_affine=True)
      (ffn): FeedForwardNetwork(
        (layer1): Linear(in_features=512, out_features=1024, bias=True)
        (gelu): GELU()
        (layer2): Linear(in_features=1024, out_features=512, bias=True)
      )
      (ffn_dropout): Dropout(p=0.1, inplace=False)
    )
    (3): EncoderLayer(
      (self_attention_norm): LayerNorm((512,), eps=1e-05, elementwise_affine=True)
      (self_attention): MultiHeadAttention(
        (linear_q): Linear(in_features=512, out_features=512, bias=True)
        (linear_k): Linear(in_features=512, out_features=512, bias=True)
        (linear_v): Linear(in_features=512, out_features=512, bias=True)
        (att_dropout): Dropout(p=0.1, inplace=False)
        (output_layer): Linear(in_features=512, out_features=512, bias=True)
      )
      (self_attention_dropout): Dropout(p=0.1, inplace=False)
      (ffn_norm): LayerNorm((512,), eps=1e-05, elementwise_affine=True)
      (ffn): FeedForwardNetwork(
        (layer1): Linear(in_features=512, out_features=1024, bias=True)
        (gelu): GELU()
        (layer2): Linear(in_features=1024, out_features=512, bias=True)
      )
      (ffn_dropout): Dropout(p=0.1, inplace=False)
    )
    (4): EncoderLayer(
      (self_attention_norm): LayerNorm((512,), eps=1e-05, elementwise_affine=True)
      (self_attention): MultiHeadAttention(
        (linear_q): Linear(in_features=512, out_features=512, bias=True)
        (linear_k): Linear(in_features=512, out_features=512, bias=True)
        (linear_v): Linear(in_features=512, out_features=512, bias=True)
        (att_dropout): Dropout(p=0.1, inplace=False)
        (output_layer): Linear(in_features=512, out_features=512, bias=True)
      )
      (self_attention_dropout): Dropout(p=0.1, inplace=False)
      (ffn_norm): LayerNorm((512,), eps=1e-05, elementwise_affine=True)
      (ffn): FeedForwardNetwork(
        (layer1): Linear(in_features=512, out_features=1024, bias=True)
        (gelu): GELU()
        (layer2): Linear(in_features=1024, out_features=512, bias=True)
      )
      (ffn_dropout): Dropout(p=0.1, inplace=False)
    )
  )
  (final_ln): LayerNorm((512,), eps=1e-05, elementwise_affine=True)
  (out_proj): Linear(in_features=512, out_features=256, bias=True)
  (attn_layer): Linear(in_features=1024, out_features=1, bias=True)
  (Linear1): Linear(in_features=256, out_features=5, bias=True)
)
total params: 11522567
Epoch: 0001 | loss_train: 1.6176 loss_val: 1.5597 | acc_train: 0.1667 acc_val: 0.5375 | f1_train: 0.1290 f1_val: 0.2440
Epoch: 0002 | loss_train: 1.5633 loss_val: 1.4790 | acc_train: 0.5750 acc_val: 0.6000 | f1_train: 0.3371 f1_val: 0.2569
Epoch: 0003 | loss_train: 1.4838 loss_val: 1.4062 | acc_train: 0.5500 acc_val: 0.6250 | f1_train: 0.2459 f1_val: 0.2778
…
>>> run.py: Namespace(dataset='wisconsin', device=1, experiment='n_layers', log_path='log/graphsage/wisconsin/n_layers', method='graphsage', path='data/graphsage', plot_path='plots/graphsage/wisconsin/n_layers')

>>> train.py: Namespace(attention_dropout=0.1, batch_size=2000, dataset='cora', device=1, dropout=0.1, end_lr=0.0001, epochs=2000, ffn_dim=64, hidden_dim=32, hops=3, log_path='log/nagphormer/cora/hidden_dim', n_heads=8, n_layers=1, name=None, path='data/nagphormer', patience=30, pe_dim=3, peak_lr=0.01, seed=3407, split=1.0, tot_updates=1000, warmup_updates=400, weight_decay=1e-05)
TransformerModel(
  (att_embeddings_nope): Linear(in_features=1436, out_features=32, bias=True)
  (layers): ModuleList(
    (0): EncoderLayer(
      (self_attention_norm): LayerNorm((32,), eps=1e-05, elementwise_affine=True)
      (self_attention): MultiHeadAttention(
        (linear_q): Linear(in_features=32, out_features=32, bias=True)
        (linear_k): Linear(in_features=32, out_features=32, bias=True)
        (linear_v): Linear(in_features=32, out_features=32, bias=True)
        (att_dropout): Dropout(p=0.1, inplace=False)
        (output_layer): Linear(in_features=32, out_features=32, bias=True)
      )
      (self_attention_dropout): Dropout(p=0.1, inplace=False)
      (ffn_norm): LayerNorm((32,), eps=1e-05, elementwise_affine=True)
      (ffn): FeedForwardNetwork(
        (layer1): Linear(in_features=32, out_features=64, bias=True)
        (gelu): GELU()
        (layer2): Linear(in_features=64, out_features=32, bias=True)
      )
      (ffn_dropout): Dropout(p=0.1, inplace=False)
    )
  )
  (final_ln): LayerNorm((32,), eps=1e-05, elementwise_affine=True)
  (out_proj): Linear(in_features=32, out_features=16, bias=True)
  (attn_layer): Linear(in_features=64, out_features=1, bias=True)
  (Linear1): Linear(in_features=16, out_features=7, bias=True)
)
total params: 55305
Epoch: 0001 | loss_train: 1.9463 loss_val: 1.9447 | acc_train: 0.1000 acc_val: 0.1600 | f1_train: 0.0825 f1_val: 0.1171
Epoch: 0002 | loss_train: 1.9461 loss_val: 1.9445 | acc_train: 0.1000 acc_val: 0.1700 | f1_train: 0.0828 f1_val: 0.1247
Epoch: 0003 | loss_train: 1.9458 loss_val: 1.9442 | acc_train: 0.1143 acc_val: 0.1820 | f1_train: 0.0975 f1_val: 0.1388
…
Epoch: 0108 | loss_train: 0.0113 loss_val: 1.4234 | acc_train: 1.0000 acc_val: 0.6620 | f1_train: 1.0000 f1_val: 0.6493
Optimization Finished!
Train cost: 11.7224s
Loading 67th epoch
Test set results: loss= 1.1657 accuracy= 0.7000

>>> train.py: Namespace(attention_dropout=0.1, batch_size=2000, dataset='cora', device=1, dropout=0.1, end_lr=0.0001, epochs=2000, ffn_dim=64, hidden_dim=64, hops=3, log_path='log/nagphormer/cora/hidden_dim', n_heads=8, n_layers=1, name=None, path='data/nagphormer', patience=30, pe_dim=3, peak_lr=0.01, seed=3407, split=1.0, tot_updates=1000, warmup_updates=400, weight_decay=1e-05)
TransformerModel(
  (att_embeddings_nope): Linear(in_features=1436, out_features=64, bias=True)
  (layers): ModuleList(
    (0): EncoderLayer(
      (self_attention_norm): LayerNorm((64,), eps=1e-05, elementwise_affine=True)
      (self_attention): MultiHeadAttention(
        (linear_q): Linear(in_features=64, out_features=64, bias=True)
        (linear_k): Linear(in_features=64, out_features=64, bias=True)
        (linear_v): Linear(in_features=64, out_features=64, bias=True)
        (att_dropout): Dropout(p=0.1, inplace=False)
        (output_layer): Linear(in_features=64, out_features=64, bias=True)
      )
      (self_attention_dropout): Dropout(p=0.1, inplace=False)
      (ffn_norm): LayerNorm((64,), eps=1e-05, elementwise_affine=True)
      (ffn): FeedForwardNetwork(
        (layer1): Linear(in_features=64, out_features=128, bias=True)
        (gelu): GELU()
        (layer2): Linear(in_features=128, out_features=64, bias=True)
      )
      (ffn_dropout): Dropout(p=0.1, inplace=False)
    )
  )
  (final_ln): LayerNorm((64,), eps=1e-05, elementwise_affine=True)
  (out_proj): Linear(in_features=64, out_features=32, bias=True)
  (attn_layer): Linear(in_features=128, out_features=1, bias=True)
  (Linear1): Linear(in_features=32, out_features=7, bias=True)
)
total params: 128009
Epoch: 0001 | loss_train: 1.9456 loss_val: 1.9498 | acc_train: 0.1071 acc_val: 0.1140 | f1_train: 0.0873 f1_val: 0.0804
Epoch: 0002 | loss_train: 1.9444 loss_val: 1.9492 | acc_train: 0.1214 acc_val: 0.1240 | f1_train: 0.0980 f1_val: 0.0869
Epoch: 0003 | loss_train: 1.9432 loss_val: 1.9482 | acc_train: 0.1214 acc_val: 0.1240 | f1_train: 0.0985 f1_val: 0.0866
…
Epoch: 0163 | loss_train: 0.0007 loss_val: 1.6178 | acc_train: 1.0000 acc_val: 0.7400 | f1_train: 1.0000 f1_val: 0.7341
Optimization Finished!
Train cost: 25.3444s
Loading 129th epoch
Test set results: loss= 1.5079 accuracy= 0.7460

>>> train.py: Namespace(attention_dropout=0.1, batch_size=2000, dataset='cora', device=1, dropout=0.1, end_lr=0.0001, epochs=2000, ffn_dim=64, hidden_dim=128, hops=3, log_path='log/nagphormer/cora/hidden_dim', n_heads=8, n_layers=1, name=None, path='data/nagphormer', patience=30, pe_dim=3, peak_lr=0.01, seed=3407, split=1.0, tot_updates=1000, warmup_updates=400, weight_decay=1e-05)
TransformerModel(
  (att_embeddings_nope): Linear(in_features=1436, out_features=128, bias=True)
  (layers): ModuleList(
    (0): EncoderLayer(
      (self_attention_norm): LayerNorm((128,), eps=1e-05, elementwise_affine=True)
      (self_attention): MultiHeadAttention(
        (linear_q): Linear(in_features=128, out_features=128, bias=True)
        (linear_k): Linear(in_features=128, out_features=128, bias=True)
        (linear_v): Linear(in_features=128, out_features=128, bias=True)
        (att_dropout): Dropout(p=0.1, inplace=False)
        (output_layer): Linear(in_features=128, out_features=128, bias=True)
      )
      (self_attention_dropout): Dropout(p=0.1, inplace=False)
      (ffn_norm): LayerNorm((128,), eps=1e-05, elementwise_affine=True)
      (ffn): FeedForwardNetwork(
        (layer1): Linear(in_features=128, out_features=256, bias=True)
        (gelu): GELU()
        (layer2): Linear(in_features=256, out_features=128, bias=True)
      )
      (ffn_dropout): Dropout(p=0.1, inplace=False)
    )
  )
  (final_ln): LayerNorm((128,), eps=1e-05, elementwise_affine=True)
  (out_proj): Linear(in_features=128, out_features=64, bias=True)
  (attn_layer): Linear(in_features=256, out_features=1, bias=True)
  (Linear1): Linear(in_features=64, out_features=7, bias=True)
)
total params: 325641
Epoch: 0001 | loss_train: 1.9508 loss_val: 1.9448 | acc_train: 0.1786 acc_val: 0.1340 | f1_train: 0.1319 f1_val: 0.0945
Epoch: 0002 | loss_train: 1.9476 loss_val: 1.9427 | acc_train: 0.1857 acc_val: 0.1540 | f1_train: 0.1452 f1_val: 0.1089
Epoch: 0003 | loss_train: 1.9425 loss_val: 1.9396 | acc_train: 0.2143 acc_val: 0.1820 | f1_train: 0.1722 f1_val: 0.1313
…
Epoch: 0074 | loss_train: 0.0006 loss_val: 1.3527 | acc_train: 1.0000 acc_val: 0.7460 | f1_train: 1.0000 f1_val: 0.7348
Optimization Finished!
Train cost: 9.9620s
Loading 44th epoch
Test set results: loss= 0.8028 accuracy= 0.7670

>>> train.py: Namespace(attention_dropout=0.1, batch_size=2000, dataset='cora', device=1, dropout=0.1, end_lr=0.0001, epochs=2000, ffn_dim=64, hidden_dim=256, hops=3, log_path='log/nagphormer/cora/hidden_dim', n_heads=8, n_layers=1, name=None, path='data/nagphormer', patience=30, pe_dim=3, peak_lr=0.01, seed=3407, split=1.0, tot_updates=1000, warmup_updates=400, weight_decay=1e-05)
TransformerModel(
  (att_embeddings_nope): Linear(in_features=1436, out_features=256, bias=True)
  (layers): ModuleList(
    (0): EncoderLayer(
      (self_attention_norm): LayerNorm((256,), eps=1e-05, elementwise_affine=True)
      (self_attention): MultiHeadAttention(
        (linear_q): Linear(in_features=256, out_features=256, bias=True)
        (linear_k): Linear(in_features=256, out_features=256, bias=True)
        (linear_v): Linear(in_features=256, out_features=256, bias=True)
        (att_dropout): Dropout(p=0.1, inplace=False)
        (output_layer): Linear(in_features=256, out_features=256, bias=True)
      )
      (self_attention_dropout): Dropout(p=0.1, inplace=False)
      (ffn_norm): LayerNorm((256,), eps=1e-05, elementwise_affine=True)
      (ffn): FeedForwardNetwork(
        (layer1): Linear(in_features=256, out_features=512, bias=True)
        (gelu): GELU()
        (layer2): Linear(in_features=512, out_features=256, bias=True)
      )
      (ffn_dropout): Dropout(p=0.1, inplace=False)
    )
  )
  (final_ln): LayerNorm((256,), eps=1e-05, elementwise_affine=True)
  (out_proj): Linear(in_features=256, out_features=128, bias=True)
  (attn_layer): Linear(in_features=512, out_features=1, bias=True)
  (Linear1): Linear(in_features=128, out_features=7, bias=True)
)
total params: 929801
Epoch: 0001 | loss_train: 1.9464 loss_val: 1.9480 | acc_train: 0.1357 acc_val: 0.1380 | f1_train: 0.0888 f1_val: 0.0976
Epoch: 0002 | loss_train: 1.9362 loss_val: 1.9365 | acc_train: 0.1286 acc_val: 0.1680 | f1_train: 0.0797 f1_val: 0.1138
Epoch: 0003 | loss_train: 1.9167 loss_val: 1.9195 | acc_train: 0.2429 acc_val: 0.2240 | f1_train: 0.1902 f1_val: 0.1769
…
>>> run.py: Namespace(dataset='cora', device=1, experiment='hidden_dim', log_path='log/nagphormer/cora/hidden_dim', method='nagphormer', path='data/nagphormer', plot_path='plots/nagphormer/cora/hidden_dim')

>>> train.py: Namespace(attention_dropout=0.1, batch_size=2000, dataset='wisconsin', device=1, dropout=0.1, end_lr=0.0001, epochs=2000, ffn_dim=64, hidden_dim=32, hops=3, log_path='log/nagphormer/wisconsin/hidden_dim', n_heads=8, n_layers=1, name=None, path='data/nagphormer', patience=30, pe_dim=3, peak_lr=0.01, seed=3407, split=1.0, tot_updates=1000, warmup_updates=400, weight_decay=1e-05)
TransformerModel(
  (att_embeddings_nope): Linear(in_features=1706, out_features=32, bias=True)
  (layers): ModuleList(
    (0): EncoderLayer(
      (self_attention_norm): LayerNorm((32,), eps=1e-05, elementwise_affine=True)
      (self_attention): MultiHeadAttention(
        (linear_q): Linear(in_features=32, out_features=32, bias=True)
        (linear_k): Linear(in_features=32, out_features=32, bias=True)
        (linear_v): Linear(in_features=32, out_features=32, bias=True)
        (att_dropout): Dropout(p=0.1, inplace=False)
        (output_layer): Linear(in_features=32, out_features=32, bias=True)
      )
      (self_attention_dropout): Dropout(p=0.1, inplace=False)
      (ffn_norm): LayerNorm((32,), eps=1e-05, elementwise_affine=True)
      (ffn): FeedForwardNetwork(
        (layer1): Linear(in_features=32, out_features=64, bias=True)
        (gelu): GELU()
        (layer2): Linear(in_features=64, out_features=32, bias=True)
      )
      (ffn_dropout): Dropout(p=0.1, inplace=False)
    )
  )
  (final_ln): LayerNorm((32,), eps=1e-05, elementwise_affine=True)
  (out_proj): Linear(in_features=32, out_features=16, bias=True)
  (attn_layer): Linear(in_features=64, out_features=1, bias=True)
  (Linear1): Linear(in_features=16, out_features=5, bias=True)
)
total params: 63911
Epoch: 0001 | loss_train: 1.6070 loss_val: 1.6077 | acc_train: 0.2917 acc_val: 0.2625 | f1_train: 0.1942 f1_val: 0.1685
Epoch: 0002 | loss_train: 1.6065 loss_val: 1.6069 | acc_train: 0.3167 acc_val: 0.2500 | f1_train: 0.2085 f1_val: 0.1469
Epoch: 0003 | loss_train: 1.6054 loss_val: 1.6056 | acc_train: 0.3667 acc_val: 0.3250 | f1_train: 0.2319 f1_val: 0.1636
…
Epoch: 0090 | loss_train: 0.0845 loss_val: 1.7998 | acc_train: 0.9667 acc_val: 0.5375 | f1_train: 0.7789 f1_val: 0.3640
Optimization Finished!
Train cost: 10.7323s
Loading 36th epoch
Test set results: loss= 1.4030 accuracy= 0.5294

>>> train.py: Namespace(attention_dropout=0.1, batch_size=2000, dataset='wisconsin', device=1, dropout=0.1, end_lr=0.0001, epochs=2000, ffn_dim=64, hidden_dim=64, hops=3, log_path='log/nagphormer/wisconsin/hidden_dim', n_heads=8, n_layers=1, name=None, path='data/nagphormer', patience=30, pe_dim=3, peak_lr=0.01, seed=3407, split=1.0, tot_updates=1000, warmup_updates=400, weight_decay=1e-05)
TransformerModel(
  (att_embeddings_nope): Linear(in_features=1706, out_features=64, bias=True)
  (layers): ModuleList(
    (0): EncoderLayer(
      (self_attention_norm): LayerNorm((64,), eps=1e-05, elementwise_affine=True)
      (self_attention): MultiHeadAttention(
        (linear_q): Linear(in_features=64, out_features=64, bias=True)
        (linear_k): Linear(in_features=64, out_features=64, bias=True)
        (linear_v): Linear(in_features=64, out_features=64, bias=True)
        (att_dropout): Dropout(p=0.1, inplace=False)
        (output_layer): Linear(in_features=64, out_features=64, bias=True)
      )
      (self_attention_dropout): Dropout(p=0.1, inplace=False)
      (ffn_norm): LayerNorm((64,), eps=1e-05, elementwise_affine=True)
      (ffn): FeedForwardNetwork(
        (layer1): Linear(in_features=64, out_features=128, bias=True)
        (gelu): GELU()
        (layer2): Linear(in_features=128, out_features=64, bias=True)
      )
      (ffn_dropout): Dropout(p=0.1, inplace=False)
    )
  )
  (final_ln): LayerNorm((64,), eps=1e-05, elementwise_affine=True)
  (out_proj): Linear(in_features=64, out_features=32, bias=True)
  (attn_layer): Linear(in_features=128, out_features=1, bias=True)
  (Linear1): Linear(in_features=32, out_features=5, bias=True)
)
total params: 145223
Epoch: 0001 | loss_train: 1.6105 loss_val: 1.6056 | acc_train: 0.1333 acc_val: 0.2125 | f1_train: 0.0939 f1_val: 0.1687
Epoch: 0002 | loss_train: 1.6089 loss_val: 1.6032 | acc_train: 0.1250 acc_val: 0.2250 | f1_train: 0.0812 f1_val: 0.1742
Epoch: 0003 | loss_train: 1.6064 loss_val: 1.5997 | acc_train: 0.1917 acc_val: 0.3500 | f1_train: 0.1264 f1_val: 0.2113
…
Epoch: 0074 | loss_train: 0.0306 loss_val: 1.9874 | acc_train: 1.0000 acc_val: 0.5750 | f1_train: 1.0000 f1_val: 0.4618
Optimization Finished!
Train cost: 7.3733s
Loading 25th epoch
Test set results: loss= 1.3739 accuracy= 0.5686

>>> train.py: Namespace(attention_dropout=0.1, batch_size=2000, dataset='wisconsin', device=1, dropout=0.1, end_lr=0.0001, epochs=2000, ffn_dim=64, hidden_dim=128, hops=3, log_path='log/nagphormer/wisconsin/hidden_dim', n_heads=8, n_layers=1, name=None, path='data/nagphormer', patience=30, pe_dim=3, peak_lr=0.01, seed=3407, split=1.0, tot_updates=1000, warmup_updates=400, weight_decay=1e-05)
TransformerModel(
  (att_embeddings_nope): Linear(in_features=1706, out_features=128, bias=True)
  (layers): ModuleList(
    (0): EncoderLayer(
      (self_attention_norm): LayerNorm((128,), eps=1e-05, elementwise_affine=True)
      (self_attention): MultiHeadAttention(
        (linear_q): Linear(in_features=128, out_features=128, bias=True)
        (linear_k): Linear(in_features=128, out_features=128, bias=True)
        (linear_v): Linear(in_features=128, out_features=128, bias=True)
        (att_dropout): Dropout(p=0.1, inplace=False)
        (output_layer): Linear(in_features=128, out_features=128, bias=True)
      )
      (self_attention_dropout): Dropout(p=0.1, inplace=False)
      (ffn_norm): LayerNorm((128,), eps=1e-05, elementwise_affine=True)
      (ffn): FeedForwardNetwork(
        (layer1): Linear(in_features=128, out_features=256, bias=True)
        (gelu): GELU()
        (layer2): Linear(in_features=256, out_features=128, bias=True)
      )
      (ffn_dropout): Dropout(p=0.1, inplace=False)
    )
  )
  (final_ln): LayerNorm((128,), eps=1e-05, elementwise_affine=True)
  (out_proj): Linear(in_features=128, out_features=64, bias=True)
  (attn_layer): Linear(in_features=256, out_features=1, bias=True)
  (Linear1): Linear(in_features=64, out_features=5, bias=True)
)
total params: 360071
Epoch: 0001 | loss_train: 1.5985 loss_val: 1.5879 | acc_train: 0.3500 acc_val: 0.5500 | f1_train: 0.2661 f1_val: 0.3657
Epoch: 0002 | loss_train: 1.5932 loss_val: 1.5783 | acc_train: 0.3750 acc_val: 0.6000 | f1_train: 0.2396 f1_val: 0.3954
Epoch: 0003 | loss_train: 1.5837 loss_val: 1.5653 | acc_train: 0.5250 acc_val: 0.6750 | f1_train: 0.3078 f1_val: 0.4503
…
Epoch: 0059 | loss_train: 0.0142 loss_val: 2.2134 | acc_train: 1.0000 acc_val: 0.6125 | f1_train: 1.0000 f1_val: 0.4229
Optimization Finished!
Train cost: 9.5277s
Loading 3th epoch
Test set results: loss= 1.5748 accuracy= 0.4706

>>> train.py: Namespace(attention_dropout=0.1, batch_size=2000, dataset='wisconsin', device=1, dropout=0.1, end_lr=0.0001, epochs=2000, ffn_dim=64, hidden_dim=256, hops=3, log_path='log/nagphormer/wisconsin/hidden_dim', n_heads=8, n_layers=1, name=None, path='data/nagphormer', patience=30, pe_dim=3, peak_lr=0.01, seed=3407, split=1.0, tot_updates=1000, warmup_updates=400, weight_decay=1e-05)
TransformerModel(
  (att_embeddings_nope): Linear(in_features=1706, out_features=256, bias=True)
  (layers): ModuleList(
    (0): EncoderLayer(
      (self_attention_norm): LayerNorm((256,), eps=1e-05, elementwise_affine=True)
      (self_attention): MultiHeadAttention(
        (linear_q): Linear(in_features=256, out_features=256, bias=True)
        (linear_k): Linear(in_features=256, out_features=256, bias=True)
        (linear_v): Linear(in_features=256, out_features=256, bias=True)
        (att_dropout): Dropout(p=0.1, inplace=False)
        (output_layer): Linear(in_features=256, out_features=256, bias=True)
      )
      (self_attention_dropout): Dropout(p=0.1, inplace=False)
      (ffn_norm): LayerNorm((256,), eps=1e-05, elementwise_affine=True)
      (ffn): FeedForwardNetwork(
        (layer1): Linear(in_features=256, out_features=512, bias=True)
        (gelu): GELU()
        (layer2): Linear(in_features=512, out_features=256, bias=True)
      )
      (ffn_dropout): Dropout(p=0.1, inplace=False)
    )
  )
  (final_ln): LayerNorm((256,), eps=1e-05, elementwise_affine=True)
  (out_proj): Linear(in_features=256, out_features=128, bias=True)
  (attn_layer): Linear(in_features=512, out_features=1, bias=True)
  (Linear1): Linear(in_features=128, out_features=5, bias=True)
)
total params: 998663
Epoch: 0001 | loss_train: 1.5833 loss_val: 1.5692 | acc_train: 0.3333 acc_val: 0.3125 | f1_train: 0.2743 f1_val: 0.1912
Epoch: 0002 | loss_train: 1.5691 loss_val: 1.5409 | acc_train: 0.4250 acc_val: 0.4625 | f1_train: 0.2474 f1_val: 0.2843
Epoch: 0003 | loss_train: 1.5431 loss_val: 1.5011 | acc_train: 0.5167 acc_val: 0.5125 | f1_train: 0.2827 f1_val: 0.2696
…
