
>>> train.py: Namespace(attention_dropout=0.1, batch_size=32, dataset='LINUX', device=1, dropout=0.1, end_lr=0.0001, epochs=2000, ffn_dim=64, hidden_dim=128, hops=3, log_path='log/nagphormer/LINUX/default', n_heads=8, n_layers=1, name=None, one_hot=False, path='data/nagphormer', patience=30, pe_dim=3, peak_lr=0.001, pyg_path='data/pyg/LINUX', seed=3407, split=1.0, top_k=10, tot_updates=1000, warmup_updates=400, weight_decay=1e-05)

Graphs dropped for being too small: 63/800
TransformerModel(
  (att_embeddings_nope): Linear(in_features=3, out_features=128, bias=True)
  (layers): ModuleList(
    (0): EncoderLayer(
      (self_attention_norm): LayerNorm((128,), eps=1e-05, elementwise_affine=True)
      (self_attention): MultiHeadAttention(
        (linear_q): Linear(in_features=128, out_features=128, bias=True)
        (linear_k): Linear(in_features=128, out_features=128, bias=True)
        (linear_v): Linear(in_features=128, out_features=128, bias=True)
        (att_dropout): Dropout(p=0.1, inplace=False)
        (output_layer): Linear(in_features=128, out_features=128, bias=True)
      )
      (self_attention_dropout): Dropout(p=0.1, inplace=False)
      (ffn_norm): LayerNorm((128,), eps=1e-05, elementwise_affine=True)
      (ffn): FeedForwardNetwork(
        (layer1): Linear(in_features=128, out_features=256, bias=True)
        (gelu): GELU()
        (layer2): Linear(in_features=256, out_features=128, bias=True)
      )
      (ffn_dropout): Dropout(p=0.1, inplace=False)
    )
  )
  (final_ln): LayerNorm((128,), eps=1e-05, elementwise_affine=True)
  (out_proj): Linear(in_features=128, out_features=64, bias=True)
  (attn_layer): Linear(in_features=256, out_features=1, bias=True)
  (Linear1): Linear(in_features=64, out_features=128, bias=True)
)
total params: 150082
Epoch: 0001 | loss_train: 19.6795 loss_val: 18.6021 | f1_val: 0.07 | rmse_val: 3.3741
Epoch: 0002 | loss_train: 18.3024 loss_val: 14.6734 | f1_val: 0.06 | rmse_val: 2.9943
Epoch: 0003 | loss_train: 13.6742 loss_val: 12.0244 | f1_val: 0.07 | rmse_val: 1.7410
Epoch: 0004 | loss_train: 6.4100 loss_val: 4.2518 | f1_val: 0.07 | rmse_val: 1.1327
…
>>> run.py: Namespace(dataset='LINUX', device=1, experiment='default', log_path='log/nagphormer/LINUX/default', path='data/nagphormer', plot_path='plots/nagphormer/LINUX/default', pyg_path='data/pyg/LINUX')

>>> Training split = 1.0

>>> train.py: Namespace(attention_dropout=0.1, batch_size=32, dataset='AIDS700nef', device=1, dropout=0.1, end_lr=0.0001, epochs=2000, ffn_dim=64, hidden_dim=128, hops=3, log_path='log/nagphormer/AIDS700nef/default', n_heads=8, n_layers=1, name=None, one_hot=False, path='data/nagphormer', patience=30, pe_dim=3, peak_lr=0.001, pyg_path='data/pyg/AIDS700nef', seed=3407, split=1.0, top_k=10, tot_updates=1000, warmup_updates=400, weight_decay=1e-05)

Graphs dropped for being too small: 15/560
TransformerModel(
  (att_embeddings_nope): Linear(in_features=32, out_features=128, bias=True)
  (layers): ModuleList(
    (0): EncoderLayer(
      (self_attention_norm): LayerNorm((128,), eps=1e-05, elementwise_affine=True)
      (self_attention): MultiHeadAttention(
        (linear_q): Linear(in_features=128, out_features=128, bias=True)
        (linear_k): Linear(in_features=128, out_features=128, bias=True)
        (linear_v): Linear(in_features=128, out_features=128, bias=True)
        (att_dropout): Dropout(p=0.1, inplace=False)
        (output_layer): Linear(in_features=128, out_features=128, bias=True)
      )
      (self_attention_dropout): Dropout(p=0.1, inplace=False)
      (ffn_norm): LayerNorm((128,), eps=1e-05, elementwise_affine=True)
      (ffn): FeedForwardNetwork(
        (layer1): Linear(in_features=128, out_features=256, bias=True)
        (gelu): GELU()
        (layer2): Linear(in_features=256, out_features=128, bias=True)
      )
      (ffn_dropout): Dropout(p=0.1, inplace=False)
    )
  )
  (final_ln): LayerNorm((128,), eps=1e-05, elementwise_affine=True)
  (out_proj): Linear(in_features=128, out_features=64, bias=True)
  (attn_layer): Linear(in_features=256, out_features=1, bias=True)
  (Linear1): Linear(in_features=64, out_features=128, bias=True)
)
total params: 153794
Epoch: 0001 | loss_train: 82.5602 loss_val: 78.2794 | f1_val: 0.05 | rmse_val: 7.4451
Epoch: 0002 | loss_train: 79.5640 loss_val: 91.4111 | f1_val: 0.06 | rmse_val: 7.4450
Epoch: 0003 | loss_train: 76.6822 loss_val: 68.6494 | f1_val: 0.08 | rmse_val: 6.8450
Epoch: 0004 | loss_train: 64.9420 loss_val: 59.2096 | f1_val: 0.03 | rmse_val: 6.0641
…
>>> run.py: Namespace(dataset='AIDS700nef', device=1, experiment='default', log_path='log/nagphormer/AIDS700nef/default', path='data/nagphormer', plot_path='plots/nagphormer/AIDS700nef/default', pyg_path='data/pyg/AIDS700nef')

>>> Training split = 1.0

>>> train.py: Namespace(attention_dropout=0.1, batch_size=32, dataset='LINUX', device=1, dropout=0.1, end_lr=0.0001, epochs=2000, ffn_dim=64, hidden_dim=128, hops=3, log_path='log/nagphormer/LINUX/one_hot', n_heads=8, n_layers=1, name=None, one_hot=True, path='data/nagphormer', patience=30, pe_dim=3, peak_lr=0.001, pyg_path='data/pyg/LINUX', seed=3407, split=1.0, top_k=10, tot_updates=1000, warmup_updates=400, weight_decay=1e-05)

Graphs dropped for being too small: 63/800
TransformerModel(
  (att_embeddings_nope): Linear(in_features=11, out_features=128, bias=True)
  (layers): ModuleList(
    (0): EncoderLayer(
      (self_attention_norm): LayerNorm((128,), eps=1e-05, elementwise_affine=True)
      (self_attention): MultiHeadAttention(
        (linear_q): Linear(in_features=128, out_features=128, bias=True)
        (linear_k): Linear(in_features=128, out_features=128, bias=True)
        (linear_v): Linear(in_features=128, out_features=128, bias=True)
        (att_dropout): Dropout(p=0.1, inplace=False)
        (output_layer): Linear(in_features=128, out_features=128, bias=True)
      )
      (self_attention_dropout): Dropout(p=0.1, inplace=False)
      (ffn_norm): LayerNorm((128,), eps=1e-05, elementwise_affine=True)
      (ffn): FeedForwardNetwork(
        (layer1): Linear(in_features=128, out_features=256, bias=True)
        (gelu): GELU()
        (layer2): Linear(in_features=256, out_features=128, bias=True)
      )
      (ffn_dropout): Dropout(p=0.1, inplace=False)
    )
  )
  (final_ln): LayerNorm((128,), eps=1e-05, elementwise_affine=True)
  (out_proj): Linear(in_features=128, out_features=64, bias=True)
  (attn_layer): Linear(in_features=256, out_features=1, bias=True)
  (Linear1): Linear(in_features=64, out_features=128, bias=True)
)
total params: 151106
Epoch: 0001 | loss_train: 20.5374 loss_val: 19.6294 | f1_val: 0.06 | rmse_val: 3.4429
Epoch: 0002 | loss_train: 18.7703 loss_val: 14.4914 | f1_val: 0.05 | rmse_val: 2.9110
Epoch: 0003 | loss_train: 12.7951 loss_val: 10.2197 | f1_val: 0.06 | rmse_val: 1.4466
Epoch: 0004 | loss_train: 5.4022 loss_val: 4.2923 | f1_val: 0.06 | rmse_val: 1.3588
…
>>> run.py: Namespace(dataset='LINUX', device=1, experiment='one_hot', log_path='log/nagphormer/LINUX/one_hot', path='data/nagphormer', plot_path='plots/nagphormer/LINUX/one_hot', pyg_path='data/pyg/LINUX')

>>> train.py: Namespace(attention_dropout=0.1, batch_size=32, dataset='AIDS700nef', device=1, dropout=0.1, end_lr=0.0001, epochs=2000, ffn_dim=64, hidden_dim=128, hops=3, log_path='log/nagphormer/AIDS700nef/one_hot', n_heads=8, n_layers=1, name=None, one_hot=True, path='data/nagphormer', patience=30, pe_dim=3, peak_lr=0.001, pyg_path='data/pyg/AIDS700nef', seed=3407, split=1.0, top_k=10, tot_updates=1000, warmup_updates=400, weight_decay=1e-05)

Graphs dropped for being too small: 15/560
TransformerModel(
  (att_embeddings_nope): Linear(in_features=39, out_features=128, bias=True)
  (layers): ModuleList(
    (0): EncoderLayer(
      (self_attention_norm): LayerNorm((128,), eps=1e-05, elementwise_affine=True)
      (self_attention): MultiHeadAttention(
        (linear_q): Linear(in_features=128, out_features=128, bias=True)
        (linear_k): Linear(in_features=128, out_features=128, bias=True)
        (linear_v): Linear(in_features=128, out_features=128, bias=True)
        (att_dropout): Dropout(p=0.1, inplace=False)
        (output_layer): Linear(in_features=128, out_features=128, bias=True)
      )
      (self_attention_dropout): Dropout(p=0.1, inplace=False)
      (ffn_norm): LayerNorm((128,), eps=1e-05, elementwise_affine=True)
      (ffn): FeedForwardNetwork(
        (layer1): Linear(in_features=128, out_features=256, bias=True)
        (gelu): GELU()
        (layer2): Linear(in_features=256, out_features=128, bias=True)
      )
      (ffn_dropout): Dropout(p=0.1, inplace=False)
    )
  )
  (final_ln): LayerNorm((128,), eps=1e-05, elementwise_affine=True)
  (out_proj): Linear(in_features=128, out_features=64, bias=True)
  (attn_layer): Linear(in_features=256, out_features=1, bias=True)
  (Linear1): Linear(in_features=64, out_features=128, bias=True)
)
total params: 154690
Epoch: 0001 | loss_train: 81.5196 loss_val: 76.6284 | f1_val: 0.07 | rmse_val: 7.2059
Epoch: 0002 | loss_train: 77.1371 loss_val: 87.3683 | f1_val: 0.03 | rmse_val: 7.0852
Epoch: 0003 | loss_train: 71.8469 loss_val: 63.0372 | f1_val: 0.06 | rmse_val: 6.4555
Epoch: 0004 | loss_train: 57.2929 loss_val: 49.1815 | f1_val: 0.04 | rmse_val: 5.3222
…
>>> run.py: Namespace(dataset='AIDS700nef', device=1, experiment='hops', log_path='log/nagphormer/AIDS700nef/hops', path='data/nagphormer', plot_path='plots/nagphormer/AIDS700nef/hops', pyg_path='data/pyg/AIDS700nef')

>>> train.py: Namespace(attention_dropout=0.1, batch_size=32, dataset='LINUX', device=1, dropout=0.1, end_lr=0.0001, epochs=2000, ffn_dim=64, hidden_dim=128, hops=3, log_path='log/nagphormer/LINUX/pe_dim', n_heads=8, n_layers=1, name=None, one_hot=False, path='data/nagphormer', patience=30, pe_dim=1, peak_lr=0.001, pyg_path='data/pyg/LINUX', seed=3407, split=1.0, top_k=10, tot_updates=1000, warmup_updates=400, weight_decay=1e-05)

Graphs dropped for being too small: 0/800
TransformerModel(
  (att_embeddings_nope): Linear(in_features=1, out_features=128, bias=True)
  (layers): ModuleList(
    (0): EncoderLayer(
      (self_attention_norm): LayerNorm((128,), eps=1e-05, elementwise_affine=True)
      (self_attention): MultiHeadAttention(
        (linear_q): Linear(in_features=128, out_features=128, bias=True)
        (linear_k): Linear(in_features=128, out_features=128, bias=True)
        (linear_v): Linear(in_features=128, out_features=128, bias=True)
        (att_dropout): Dropout(p=0.1, inplace=False)
        (output_layer): Linear(in_features=128, out_features=128, bias=True)
      )
      (self_attention_dropout): Dropout(p=0.1, inplace=False)
      (ffn_norm): LayerNorm((128,), eps=1e-05, elementwise_affine=True)
      (ffn): FeedForwardNetwork(
        (layer1): Linear(in_features=128, out_features=256, bias=True)
        (gelu): GELU()
        (layer2): Linear(in_features=256, out_features=128, bias=True)
      )
      (ffn_dropout): Dropout(p=0.1, inplace=False)
    )
  )
  (final_ln): LayerNorm((128,), eps=1e-05, elementwise_affine=True)
  (out_proj): Linear(in_features=128, out_features=64, bias=True)
  (attn_layer): Linear(in_features=256, out_features=1, bias=True)
  (Linear1): Linear(in_features=64, out_features=128, bias=True)
)
total params: 149826

>>> train.py: Namespace(attention_dropout=0.1, batch_size=32, dataset='LINUX', device=1, dropout=0.1, end_lr=0.0001, epochs=2000, ffn_dim=64, hidden_dim=128, hops=3, log_path='log/nagphormer/LINUX/pe_dim', n_heads=8, n_layers=1, name=None, one_hot=False, path='data/nagphormer', patience=30, pe_dim=2, peak_lr=0.001, pyg_path='data/pyg/LINUX', seed=3407, split=1.0, top_k=10, tot_updates=1000, warmup_updates=400, weight_decay=1e-05)

Graphs dropped for being too small: 9/800
TransformerModel(
  (att_embeddings_nope): Linear(in_features=2, out_features=128, bias=True)
  (layers): ModuleList(
    (0): EncoderLayer(
      (self_attention_norm): LayerNorm((128,), eps=1e-05, elementwise_affine=True)
      (self_attention): MultiHeadAttention(
        (linear_q): Linear(in_features=128, out_features=128, bias=True)
        (linear_k): Linear(in_features=128, out_features=128, bias=True)
        (linear_v): Linear(in_features=128, out_features=128, bias=True)
        (att_dropout): Dropout(p=0.1, inplace=False)
        (output_layer): Linear(in_features=128, out_features=128, bias=True)
      )
      (self_attention_dropout): Dropout(p=0.1, inplace=False)
      (ffn_norm): LayerNorm((128,), eps=1e-05, elementwise_affine=True)
      (ffn): FeedForwardNetwork(
        (layer1): Linear(in_features=128, out_features=256, bias=True)
        (gelu): GELU()
        (layer2): Linear(in_features=256, out_features=128, bias=True)
      )
      (ffn_dropout): Dropout(p=0.1, inplace=False)
    )
  )
  (final_ln): LayerNorm((128,), eps=1e-05, elementwise_affine=True)
  (out_proj): Linear(in_features=128, out_features=64, bias=True)
  (attn_layer): Linear(in_features=256, out_features=1, bias=True)
  (Linear1): Linear(in_features=64, out_features=128, bias=True)
)
total params: 149954
Epoch: 0001 | loss_train: 25.4380 loss_val: 20.0515 | f1_val: 0.06 | rmse_val: 3.2681
Epoch: 0002 | loss_train: 22.0528 loss_val: 15.1398 | f1_val: 0.05 | rmse_val: 2.4377
Epoch: 0003 | loss_train: 13.7410 loss_val: 8.0154 | f1_val: 0.05 | rmse_val: 1.0952
Epoch: 0004 | loss_train: 6.0716 loss_val: 6.7479 | f1_val: 0.06 | rmse_val: 1.7515
…
Optimization Finished!
Train cost: 567.2200s
Loading 17th epoch
f1_test: 0.06 | rmse_test: 1.1806

>>> train.py: Namespace(attention_dropout=0.1, batch_size=32, dataset='LINUX', device=1, dropout=0.1, end_lr=0.0001, epochs=2000, ffn_dim=64, hidden_dim=128, hops=3, log_path='log/nagphormer/LINUX/pe_dim', n_heads=8, n_layers=1, name=None, one_hot=False, path='data/nagphormer', patience=30, pe_dim=4, peak_lr=0.001, pyg_path='data/pyg/LINUX', seed=3407, split=1.0, top_k=10, tot_updates=1000, warmup_updates=400, weight_decay=1e-05)

Graphs dropped for being too small: 204/800
TransformerModel(
  (att_embeddings_nope): Linear(in_features=4, out_features=128, bias=True)
  (layers): ModuleList(
    (0): EncoderLayer(
      (self_attention_norm): LayerNorm((128,), eps=1e-05, elementwise_affine=True)
      (self_attention): MultiHeadAttention(
        (linear_q): Linear(in_features=128, out_features=128, bias=True)
        (linear_k): Linear(in_features=128, out_features=128, bias=True)
        (linear_v): Linear(in_features=128, out_features=128, bias=True)
        (att_dropout): Dropout(p=0.1, inplace=False)
        (output_layer): Linear(in_features=128, out_features=128, bias=True)
      )
      (self_attention_dropout): Dropout(p=0.1, inplace=False)
      (ffn_norm): LayerNorm((128,), eps=1e-05, elementwise_affine=True)
      (ffn): FeedForwardNetwork(
        (layer1): Linear(in_features=128, out_features=256, bias=True)
        (gelu): GELU()
        (layer2): Linear(in_features=256, out_features=128, bias=True)
      )
      (ffn_dropout): Dropout(p=0.1, inplace=False)
    )
  )
  (final_ln): LayerNorm((128,), eps=1e-05, elementwise_affine=True)
  (out_proj): Linear(in_features=128, out_features=64, bias=True)
  (attn_layer): Linear(in_features=256, out_features=1, bias=True)
  (Linear1): Linear(in_features=64, out_features=128, bias=True)
)
total params: 150210
Epoch: 0001 | loss_train: 11.8435 loss_val: 13.2408 | f1_val: 0.10 | rmse_val: 3.6645
Epoch: 0002 | loss_train: 11.7348 loss_val: 13.2540 | f1_val: 0.10 | rmse_val: 3.4249
Epoch: 0003 | loss_train: 10.6524 loss_val: 10.2441 | f1_val: 0.08 | rmse_val: 3.3175
Epoch: 0004 | loss_train: 10.0132 loss_val: 11.0525 | f1_val: 0.10 | rmse_val: 2.8545
…
>>> run.py: Namespace(dataset='LINUX', device=1, experiment='pe_dim', log_path='log/nagphormer/LINUX/pe_dim', path='data/nagphormer', plot_path='plots/nagphormer/LINUX/pe_dim', pyg_path='data/pyg/LINUX')

>>> train.py: Namespace(attention_dropout=0.1, batch_size=32, dataset='AIDS700nef', device=1, dropout=0.1, end_lr=0.0001, epochs=2000, ffn_dim=64, hidden_dim=128, hops=3, log_path='log/nagphormer/AIDS700nef/pe_dim', n_heads=8, n_layers=1, name=None, one_hot=False, path='data/nagphormer', patience=30, pe_dim=1, peak_lr=0.001, pyg_path='data/pyg/AIDS700nef', seed=3407, split=1.0, top_k=10, tot_updates=1000, warmup_updates=400, weight_decay=1e-05)

Graphs dropped for being too small: 2/560
TransformerModel(
  (att_embeddings_nope): Linear(in_features=30, out_features=128, bias=True)
  (layers): ModuleList(
    (0): EncoderLayer(
      (self_attention_norm): LayerNorm((128,), eps=1e-05, elementwise_affine=True)
      (self_attention): MultiHeadAttention(
        (linear_q): Linear(in_features=128, out_features=128, bias=True)
        (linear_k): Linear(in_features=128, out_features=128, bias=True)
        (linear_v): Linear(in_features=128, out_features=128, bias=True)
        (att_dropout): Dropout(p=0.1, inplace=False)
        (output_layer): Linear(in_features=128, out_features=128, bias=True)
      )
      (self_attention_dropout): Dropout(p=0.1, inplace=False)
      (ffn_norm): LayerNorm((128,), eps=1e-05, elementwise_affine=True)
      (ffn): FeedForwardNetwork(
        (layer1): Linear(in_features=128, out_features=256, bias=True)
        (gelu): GELU()
        (layer2): Linear(in_features=256, out_features=128, bias=True)
      )
      (ffn_dropout): Dropout(p=0.1, inplace=False)
    )
  )
  (final_ln): LayerNorm((128,), eps=1e-05, elementwise_affine=True)
  (out_proj): Linear(in_features=128, out_features=64, bias=True)
  (attn_layer): Linear(in_features=256, out_features=1, bias=True)
  (Linear1): Linear(in_features=64, out_features=128, bias=True)
)
total params: 153538
Epoch: 0001 | loss_train: 94.3163 loss_val: 99.4356 | f1_val: 0.04 | rmse_val: 7.8117
Epoch: 0002 | loss_train: 84.8179 loss_val: 98.3591 | f1_val: 0.05 | rmse_val: 7.5663
Epoch: 0003 | loss_train: 79.2042 loss_val: 77.8207 | f1_val: 0.07 | rmse_val: 6.8976
Epoch: 0004 | loss_train: 68.0568 loss_val: 67.4384 | f1_val: 0.05 | rmse_val: 5.7434
…
Train cost: 342.7014s
Loading 32th epoch
f1_test: 0.04 | rmse_test: 1.8081

>>> train.py: Namespace(attention_dropout=0.1, batch_size=32, dataset='AIDS700nef', device=1, dropout=0.1, end_lr=0.0001, epochs=2000, ffn_dim=64, hidden_dim=128, hops=3, log_path='log/nagphormer/AIDS700nef/pe_dim', n_heads=8, n_layers=1, name=None, one_hot=False, path='data/nagphormer', patience=30, pe_dim=2, peak_lr=0.001, pyg_path='data/pyg/AIDS700nef', seed=3407, split=1.0, top_k=10, tot_updates=1000, warmup_updates=400, weight_decay=1e-05)

Graphs dropped for being too small: 12/560
TransformerModel(
  (att_embeddings_nope): Linear(in_features=31, out_features=128, bias=True)
  (layers): ModuleList(
    (0): EncoderLayer(
      (self_attention_norm): LayerNorm((128,), eps=1e-05, elementwise_affine=True)
      (self_attention): MultiHeadAttention(
        (linear_q): Linear(in_features=128, out_features=128, bias=True)
        (linear_k): Linear(in_features=128, out_features=128, bias=True)
        (linear_v): Linear(in_features=128, out_features=128, bias=True)
        (att_dropout): Dropout(p=0.1, inplace=False)
        (output_layer): Linear(in_features=128, out_features=128, bias=True)
      )
      (self_attention_dropout): Dropout(p=0.1, inplace=False)
      (ffn_norm): LayerNorm((128,), eps=1e-05, elementwise_affine=True)
      (ffn): FeedForwardNetwork(
        (layer1): Linear(in_features=128, out_features=256, bias=True)
        (gelu): GELU()
        (layer2): Linear(in_features=256, out_features=128, bias=True)
      )
      (ffn_dropout): Dropout(p=0.1, inplace=False)
    )
  )
  (final_ln): LayerNorm((128,), eps=1e-05, elementwise_affine=True)
  (out_proj): Linear(in_features=128, out_features=64, bias=True)
  (attn_layer): Linear(in_features=256, out_features=1, bias=True)
  (Linear1): Linear(in_features=64, out_features=128, bias=True)
)
total params: 153666
Epoch: 0001 | loss_train: 84.9907 loss_val: 78.6469 | f1_val: 0.04 | rmse_val: 7.4148
Epoch: 0002 | loss_train: 80.3519 loss_val: 90.1980 | f1_val: 0.05 | rmse_val: 7.3222
Epoch: 0003 | loss_train: 75.9616 loss_val: 66.5241 | f1_val: 0.07 | rmse_val: 6.6856
Epoch: 0004 | loss_train: 62.8265 loss_val: 55.9579 | f1_val: 0.06 | rmse_val: 5.6867
…
Train cost: 237.2246s
Loading 26th epoch
f1_test: 0.06 | rmse_test: 1.5972

>>> train.py: Namespace(attention_dropout=0.1, batch_size=32, dataset='AIDS700nef', device=1, dropout=0.1, end_lr=0.0001, epochs=2000, ffn_dim=64, hidden_dim=128, hops=3, log_path='log/nagphormer/AIDS700nef/pe_dim', n_heads=8, n_layers=1, name=None, one_hot=False, path='data/nagphormer', patience=30, pe_dim=4, peak_lr=0.001, pyg_path='data/pyg/AIDS700nef', seed=3407, split=1.0, top_k=10, tot_updates=1000, warmup_updates=400, weight_decay=1e-05)

Graphs dropped for being too small: 36/560
TransformerModel(
  (att_embeddings_nope): Linear(in_features=33, out_features=128, bias=True)
  (layers): ModuleList(
    (0): EncoderLayer(
      (self_attention_norm): LayerNorm((128,), eps=1e-05, elementwise_affine=True)
      (self_attention): MultiHeadAttention(
        (linear_q): Linear(in_features=128, out_features=128, bias=True)
        (linear_k): Linear(in_features=128, out_features=128, bias=True)
        (linear_v): Linear(in_features=128, out_features=128, bias=True)
        (att_dropout): Dropout(p=0.1, inplace=False)
        (output_layer): Linear(in_features=128, out_features=128, bias=True)
      )
      (self_attention_dropout): Dropout(p=0.1, inplace=False)
      (ffn_norm): LayerNorm((128,), eps=1e-05, elementwise_affine=True)
      (ffn): FeedForwardNetwork(
        (layer1): Linear(in_features=128, out_features=256, bias=True)
        (gelu): GELU()
        (layer2): Linear(in_features=256, out_features=128, bias=True)
      )
      (ffn_dropout): Dropout(p=0.1, inplace=False)
    )
  )
  (final_ln): LayerNorm((128,), eps=1e-05, elementwise_affine=True)
  (out_proj): Linear(in_features=128, out_features=64, bias=True)
  (attn_layer): Linear(in_features=256, out_features=1, bias=True)
  (Linear1): Linear(in_features=64, out_features=128, bias=True)
)
total params: 153922
Epoch: 0001 | loss_train: 70.5153 loss_val: 57.7820 | f1_val: 0.07 | rmse_val: 6.9577
Epoch: 0002 | loss_train: 68.3309 loss_val: 78.3592 | f1_val: 0.03 | rmse_val: 6.6224
Epoch: 0003 | loss_train: 71.3829 loss_val: 56.0778 | f1_val: 0.04 | rmse_val: 6.5714
Epoch: 0004 | loss_train: 64.8841 loss_val: 48.1360 | f1_val: 0.04 | rmse_val: 6.0052
…
Optimization Finished!
Train cost: 371.3437s
Loading 17th epoch
f1_test: 0.06 | rmse_test: 1.1806

>>> train.py: Namespace(attention_dropout=0.1, batch_size=32, dataset='LINUX', device=1, dropout=0.1, end_lr=0.0001, epochs=2000, ffn_dim=64, hidden_dim=128, hops=3, log_path='log/nagphormer/LINUX/n_layers', n_heads=8, n_layers=2, name=None, one_hot=False, path='data/nagphormer', patience=30, pe_dim=3, peak_lr=0.001, pyg_path='data/pyg/LINUX', seed=3407, split=1.0, top_k=10, tot_updates=1000, warmup_updates=400, weight_decay=1e-05)

Graphs dropped for being too small: 63/800
TransformerModel(
  (att_embeddings_nope): Linear(in_features=3, out_features=128, bias=True)
  (layers): ModuleList(
    (0): EncoderLayer(
      (self_attention_norm): LayerNorm((128,), eps=1e-05, elementwise_affine=True)
      (self_attention): MultiHeadAttention(
        (linear_q): Linear(in_features=128, out_features=128, bias=True)
        (linear_k): Linear(in_features=128, out_features=128, bias=True)
        (linear_v): Linear(in_features=128, out_features=128, bias=True)
        (att_dropout): Dropout(p=0.1, inplace=False)
        (output_layer): Linear(in_features=128, out_features=128, bias=True)
      )
      (self_attention_dropout): Dropout(p=0.1, inplace=False)
      (ffn_norm): LayerNorm((128,), eps=1e-05, elementwise_affine=True)
      (ffn): FeedForwardNetwork(
        (layer1): Linear(in_features=128, out_features=256, bias=True)
        (gelu): GELU()
        (layer2): Linear(in_features=256, out_features=128, bias=True)
      )
      (ffn_dropout): Dropout(p=0.1, inplace=False)
    )
    (1): EncoderLayer(
      (self_attention_norm): LayerNorm((128,), eps=1e-05, elementwise_affine=True)
      (self_attention): MultiHeadAttention(
        (linear_q): Linear(in_features=128, out_features=128, bias=True)
        (linear_k): Linear(in_features=128, out_features=128, bias=True)
        (linear_v): Linear(in_features=128, out_features=128, bias=True)
        (att_dropout): Dropout(p=0.1, inplace=False)
        (output_layer): Linear(in_features=128, out_features=128, bias=True)
      )
      (self_attention_dropout): Dropout(p=0.1, inplace=False)
      (ffn_norm): LayerNorm((128,), eps=1e-05, elementwise_affine=True)
      (ffn): FeedForwardNetwork(
        (layer1): Linear(in_features=128, out_features=256, bias=True)
        (gelu): GELU()
        (layer2): Linear(in_features=256, out_features=128, bias=True)
      )
      (ffn_dropout): Dropout(p=0.1, inplace=False)
    )
  )
  (final_ln): LayerNorm((128,), eps=1e-05, elementwise_affine=True)
  (out_proj): Linear(in_features=128, out_features=64, bias=True)
  (attn_layer): Linear(in_features=256, out_features=1, bias=True)
  (Linear1): Linear(in_features=64, out_features=128, bias=True)
)
total params: 282562
Epoch: 0001 | loss_train: 20.4889 loss_val: 19.6336 | f1_val: 0.06 | rmse_val: 3.4825
Epoch: 0002 | loss_train: 19.5613 loss_val: 16.4629 | f1_val: 0.07 | rmse_val: 3.0692
Epoch: 0003 | loss_train: 15.1348 loss_val: 13.0875 | f1_val: 0.06 | rmse_val: 1.8575
Epoch: 0004 | loss_train: 6.5788 loss_val: 3.9803 | f1_val: 0.07 | rmse_val: 1.1655
…
Optimization Finished!
Train cost: 884.1295s
Loading 16th epoch
f1_test: 0.07 | rmse_test: 1.0868

>>> train.py: Namespace(attention_dropout=0.1, batch_size=32, dataset='LINUX', device=1, dropout=0.1, end_lr=0.0001, epochs=2000, ffn_dim=64, hidden_dim=128, hops=3, log_path='log/nagphormer/LINUX/n_layers', n_heads=8, n_layers=3, name=None, one_hot=False, path='data/nagphormer', patience=30, pe_dim=3, peak_lr=0.001, pyg_path='data/pyg/LINUX', seed=3407, split=1.0, top_k=10, tot_updates=1000, warmup_updates=400, weight_decay=1e-05)

Graphs dropped for being too small: 63/800
TransformerModel(
  (att_embeddings_nope): Linear(in_features=3, out_features=128, bias=True)
  (layers): ModuleList(
    (0): EncoderLayer(
      (self_attention_norm): LayerNorm((128,), eps=1e-05, elementwise_affine=True)
      (self_attention): MultiHeadAttention(
        (linear_q): Linear(in_features=128, out_features=128, bias=True)
        (linear_k): Linear(in_features=128, out_features=128, bias=True)
        (linear_v): Linear(in_features=128, out_features=128, bias=True)
        (att_dropout): Dropout(p=0.1, inplace=False)
        (output_layer): Linear(in_features=128, out_features=128, bias=True)
      )
      (self_attention_dropout): Dropout(p=0.1, inplace=False)
      (ffn_norm): LayerNorm((128,), eps=1e-05, elementwise_affine=True)
      (ffn): FeedForwardNetwork(
        (layer1): Linear(in_features=128, out_features=256, bias=True)
        (gelu): GELU()
        (layer2): Linear(in_features=256, out_features=128, bias=True)
      )
      (ffn_dropout): Dropout(p=0.1, inplace=False)
    )
    (1): EncoderLayer(
      (self_attention_norm): LayerNorm((128,), eps=1e-05, elementwise_affine=True)
      (self_attention): MultiHeadAttention(
        (linear_q): Linear(in_features=128, out_features=128, bias=True)
        (linear_k): Linear(in_features=128, out_features=128, bias=True)
        (linear_v): Linear(in_features=128, out_features=128, bias=True)
        (att_dropout): Dropout(p=0.1, inplace=False)
        (output_layer): Linear(in_features=128, out_features=128, bias=True)
      )
      (self_attention_dropout): Dropout(p=0.1, inplace=False)
      (ffn_norm): LayerNorm((128,), eps=1e-05, elementwise_affine=True)
      (ffn): FeedForwardNetwork(
        (layer1): Linear(in_features=128, out_features=256, bias=True)
        (gelu): GELU()
        (layer2): Linear(in_features=256, out_features=128, bias=True)
      )
      (ffn_dropout): Dropout(p=0.1, inplace=False)
    )
    (2): EncoderLayer(
      (self_attention_norm): LayerNorm((128,), eps=1e-05, elementwise_affine=True)
      (self_attention): MultiHeadAttention(
        (linear_q): Linear(in_features=128, out_features=128, bias=True)
        (linear_k): Linear(in_features=128, out_features=128, bias=True)
        (linear_v): Linear(in_features=128, out_features=128, bias=True)
        (att_dropout): Dropout(p=0.1, inplace=False)
        (output_layer): Linear(in_features=128, out_features=128, bias=True)
      )
      (self_attention_dropout): Dropout(p=0.1, inplace=False)
      (ffn_norm): LayerNorm((128,), eps=1e-05, elementwise_affine=True)
      (ffn): FeedForwardNetwork(
        (layer1): Linear(in_features=128, out_features=256, bias=True)
        (gelu): GELU()
        (layer2): Linear(in_features=256, out_features=128, bias=True)
      )
      (ffn_dropout): Dropout(p=0.1, inplace=False)
    )
  )
  (final_ln): LayerNorm((128,), eps=1e-05, elementwise_affine=True)
  (out_proj): Linear(in_features=128, out_features=64, bias=True)
  (attn_layer): Linear(in_features=256, out_features=1, bias=True)
  (Linear1): Linear(in_features=64, out_features=128, bias=True)
)
total params: 415042
Epoch: 0001 | loss_train: 20.1191 loss_val: 19.4086 | f1_val: 0.06 | rmse_val: 3.3258
Epoch: 0002 | loss_train: 19.3907 loss_val: 16.3656 | f1_val: 0.05 | rmse_val: 3.2833
Epoch: 0003 | loss_train: 14.9947 loss_val: 12.7985 | f1_val: 0.05 | rmse_val: 1.8292
Epoch: 0004 | loss_train: 6.1924 loss_val: 4.1979 | f1_val: 0.07 | rmse_val: 1.3236
…
Optimization Finished!
Train cost: 1152.9075s
Loading 35th epoch
f1_test: 0.07 | rmse_test: 0.9656

>>> train.py: Namespace(attention_dropout=0.1, batch_size=32, dataset='LINUX', device=1, dropout=0.1, end_lr=0.0001, epochs=2000, ffn_dim=64, hidden_dim=128, hops=3, log_path='log/nagphormer/LINUX/n_layers', n_heads=8, n_layers=4, name=None, one_hot=False, path='data/nagphormer', patience=30, pe_dim=3, peak_lr=0.001, pyg_path='data/pyg/LINUX', seed=3407, split=1.0, top_k=10, tot_updates=1000, warmup_updates=400, weight_decay=1e-05)

Graphs dropped for being too small: 63/800
TransformerModel(
  (att_embeddings_nope): Linear(in_features=3, out_features=128, bias=True)
  (layers): ModuleList(
    (0): EncoderLayer(
      (self_attention_norm): LayerNorm((128,), eps=1e-05, elementwise_affine=True)
      (self_attention): MultiHeadAttention(
        (linear_q): Linear(in_features=128, out_features=128, bias=True)
        (linear_k): Linear(in_features=128, out_features=128, bias=True)
        (linear_v): Linear(in_features=128, out_features=128, bias=True)
        (att_dropout): Dropout(p=0.1, inplace=False)
        (output_layer): Linear(in_features=128, out_features=128, bias=True)
      )
      (self_attention_dropout): Dropout(p=0.1, inplace=False)
      (ffn_norm): LayerNorm((128,), eps=1e-05, elementwise_affine=True)
      (ffn): FeedForwardNetwork(
        (layer1): Linear(in_features=128, out_features=256, bias=True)
        (gelu): GELU()
        (layer2): Linear(in_features=256, out_features=128, bias=True)
      )
      (ffn_dropout): Dropout(p=0.1, inplace=False)
    )
    (1): EncoderLayer(
      (self_attention_norm): LayerNorm((128,), eps=1e-05, elementwise_affine=True)
      (self_attention): MultiHeadAttention(
        (linear_q): Linear(in_features=128, out_features=128, bias=True)
        (linear_k): Linear(in_features=128, out_features=128, bias=True)
        (linear_v): Linear(in_features=128, out_features=128, bias=True)
        (att_dropout): Dropout(p=0.1, inplace=False)
        (output_layer): Linear(in_features=128, out_features=128, bias=True)
      )
      (self_attention_dropout): Dropout(p=0.1, inplace=False)
      (ffn_norm): LayerNorm((128,), eps=1e-05, elementwise_affine=True)
      (ffn): FeedForwardNetwork(
        (layer1): Linear(in_features=128, out_features=256, bias=True)
        (gelu): GELU()
        (layer2): Linear(in_features=256, out_features=128, bias=True)
      )
      (ffn_dropout): Dropout(p=0.1, inplace=False)
    )
    (2): EncoderLayer(
      (self_attention_norm): LayerNorm((128,), eps=1e-05, elementwise_affine=True)
      (self_attention): MultiHeadAttention(
        (linear_q): Linear(in_features=128, out_features=128, bias=True)
        (linear_k): Linear(in_features=128, out_features=128, bias=True)
        (linear_v): Linear(in_features=128, out_features=128, bias=True)
        (att_dropout): Dropout(p=0.1, inplace=False)
        (output_layer): Linear(in_features=128, out_features=128, bias=True)
      )
      (self_attention_dropout): Dropout(p=0.1, inplace=False)
      (ffn_norm): LayerNorm((128,), eps=1e-05, elementwise_affine=True)
      (ffn): FeedForwardNetwork(
        (layer1): Linear(in_features=128, out_features=256, bias=True)
        (gelu): GELU()
        (layer2): Linear(in_features=256, out_features=128, bias=True)
      )
      (ffn_dropout): Dropout(p=0.1, inplace=False)
    )
    (3): EncoderLayer(
      (self_attention_norm): LayerNorm((128,), eps=1e-05, elementwise_affine=True)
      (self_attention): MultiHeadAttention(
        (linear_q): Linear(in_features=128, out_features=128, bias=True)
        (linear_k): Linear(in_features=128, out_features=128, bias=True)
        (linear_v): Linear(in_features=128, out_features=128, bias=True)
        (att_dropout): Dropout(p=0.1, inplace=False)
        (output_layer): Linear(in_features=128, out_features=128, bias=True)
      )
      (self_attention_dropout): Dropout(p=0.1, inplace=False)
      (ffn_norm): LayerNorm((128,), eps=1e-05, elementwise_affine=True)
      (ffn): FeedForwardNetwork(
        (layer1): Linear(in_features=128, out_features=256, bias=True)
        (gelu): GELU()
        (layer2): Linear(in_features=256, out_features=128, bias=True)
      )
      (ffn_dropout): Dropout(p=0.1, inplace=False)
    )
  )
  (final_ln): LayerNorm((128,), eps=1e-05, elementwise_affine=True)
  (out_proj): Linear(in_features=128, out_features=64, bias=True)
  (attn_layer): Linear(in_features=256, out_features=1, bias=True)
  (Linear1): Linear(in_features=64, out_features=128, bias=True)
)
total params: 547522
Epoch: 0001 | loss_train: 21.2887 loss_val: 20.8299 | f1_val: 0.04 | rmse_val: 3.5359
Epoch: 0002 | loss_train: 20.9048 loss_val: 18.1487 | f1_val: 0.08 | rmse_val: 3.3648
Epoch: 0003 | loss_train: 16.8970 loss_val: 15.5534 | f1_val: 0.08 | rmse_val: 2.4123
Epoch: 0004 | loss_train: 7.7753 loss_val: 3.9312 | f1_val: 0.06 | rmse_val: 1.0073
…
Optimization Finished!
Train cost: 1458.3609s
Loading 22th epoch
f1_test: 0.04 | rmse_test: 0.9370

>>> train.py: Namespace(attention_dropout=0.1, batch_size=32, dataset='LINUX', device=1, dropout=0.1, end_lr=0.0001, epochs=2000, ffn_dim=64, hidden_dim=128, hops=3, log_path='log/nagphormer/LINUX/n_layers', n_heads=8, n_layers=5, name=None, one_hot=False, path='data/nagphormer', patience=30, pe_dim=3, peak_lr=0.001, pyg_path='data/pyg/LINUX', seed=3407, split=1.0, top_k=10, tot_updates=1000, warmup_updates=400, weight_decay=1e-05)

Graphs dropped for being too small: 63/800
TransformerModel(
  (att_embeddings_nope): Linear(in_features=3, out_features=128, bias=True)
  (layers): ModuleList(
    (0): EncoderLayer(
      (self_attention_norm): LayerNorm((128,), eps=1e-05, elementwise_affine=True)
      (self_attention): MultiHeadAttention(
        (linear_q): Linear(in_features=128, out_features=128, bias=True)
        (linear_k): Linear(in_features=128, out_features=128, bias=True)
        (linear_v): Linear(in_features=128, out_features=128, bias=True)
        (att_dropout): Dropout(p=0.1, inplace=False)
        (output_layer): Linear(in_features=128, out_features=128, bias=True)
      )
      (self_attention_dropout): Dropout(p=0.1, inplace=False)
      (ffn_norm): LayerNorm((128,), eps=1e-05, elementwise_affine=True)
      (ffn): FeedForwardNetwork(
        (layer1): Linear(in_features=128, out_features=256, bias=True)
        (gelu): GELU()
        (layer2): Linear(in_features=256, out_features=128, bias=True)
      )
      (ffn_dropout): Dropout(p=0.1, inplace=False)
    )
    (1): EncoderLayer(
      (self_attention_norm): LayerNorm((128,), eps=1e-05, elementwise_affine=True)
      (self_attention): MultiHeadAttention(
        (linear_q): Linear(in_features=128, out_features=128, bias=True)
        (linear_k): Linear(in_features=128, out_features=128, bias=True)
        (linear_v): Linear(in_features=128, out_features=128, bias=True)
        (att_dropout): Dropout(p=0.1, inplace=False)
        (output_layer): Linear(in_features=128, out_features=128, bias=True)
      )
      (self_attention_dropout): Dropout(p=0.1, inplace=False)
      (ffn_norm): LayerNorm((128,), eps=1e-05, elementwise_affine=True)
      (ffn): FeedForwardNetwork(
        (layer1): Linear(in_features=128, out_features=256, bias=True)
        (gelu): GELU()
        (layer2): Linear(in_features=256, out_features=128, bias=True)
      )
      (ffn_dropout): Dropout(p=0.1, inplace=False)
    )
    (2): EncoderLayer(
      (self_attention_norm): LayerNorm((128,), eps=1e-05, elementwise_affine=True)
      (self_attention): MultiHeadAttention(
        (linear_q): Linear(in_features=128, out_features=128, bias=True)
        (linear_k): Linear(in_features=128, out_features=128, bias=True)
        (linear_v): Linear(in_features=128, out_features=128, bias=True)
        (att_dropout): Dropout(p=0.1, inplace=False)
        (output_layer): Linear(in_features=128, out_features=128, bias=True)
      )
      (self_attention_dropout): Dropout(p=0.1, inplace=False)
      (ffn_norm): LayerNorm((128,), eps=1e-05, elementwise_affine=True)
      (ffn): FeedForwardNetwork(
        (layer1): Linear(in_features=128, out_features=256, bias=True)
        (gelu): GELU()
        (layer2): Linear(in_features=256, out_features=128, bias=True)
      )
      (ffn_dropout): Dropout(p=0.1, inplace=False)
    )
    (3): EncoderLayer(
      (self_attention_norm): LayerNorm((128,), eps=1e-05, elementwise_affine=True)
      (self_attention): MultiHeadAttention(
        (linear_q): Linear(in_features=128, out_features=128, bias=True)
        (linear_k): Linear(in_features=128, out_features=128, bias=True)
        (linear_v): Linear(in_features=128, out_features=128, bias=True)
        (att_dropout): Dropout(p=0.1, inplace=False)
        (output_layer): Linear(in_features=128, out_features=128, bias=True)
      )
      (self_attention_dropout): Dropout(p=0.1, inplace=False)
      (ffn_norm): LayerNorm((128,), eps=1e-05, elementwise_affine=True)
      (ffn): FeedForwardNetwork(
        (layer1): Linear(in_features=128, out_features=256, bias=True)
        (gelu): GELU()
        (layer2): Linear(in_features=256, out_features=128, bias=True)
      )
      (ffn_dropout): Dropout(p=0.1, inplace=False)
    )
    (4): EncoderLayer(
      (self_attention_norm): LayerNorm((128,), eps=1e-05, elementwise_affine=True)
      (self_attention): MultiHeadAttention(
        (linear_q): Linear(in_features=128, out_features=128, bias=True)
        (linear_k): Linear(in_features=128, out_features=128, bias=True)
        (linear_v): Linear(in_features=128, out_features=128, bias=True)
        (att_dropout): Dropout(p=0.1, inplace=False)
        (output_layer): Linear(in_features=128, out_features=128, bias=True)
      )
      (self_attention_dropout): Dropout(p=0.1, inplace=False)
      (ffn_norm): LayerNorm((128,), eps=1e-05, elementwise_affine=True)
      (ffn): FeedForwardNetwork(
        (layer1): Linear(in_features=128, out_features=256, bias=True)
        (gelu): GELU()
        (layer2): Linear(in_features=256, out_features=128, bias=True)
      )
      (ffn_dropout): Dropout(p=0.1, inplace=False)
    )
  )
  (final_ln): LayerNorm((128,), eps=1e-05, elementwise_affine=True)
  (out_proj): Linear(in_features=128, out_features=64, bias=True)
  (attn_layer): Linear(in_features=256, out_features=1, bias=True)
  (Linear1): Linear(in_features=64, out_features=128, bias=True)
)
total params: 680002
Epoch: 0001 | loss_train: 19.1191 loss_val: 18.4662 | f1_val: 0.07 | rmse_val: 3.1580
Epoch: 0002 | loss_train: 18.6341 loss_val: 15.7178 | f1_val: 0.07 | rmse_val: 3.1093
Epoch: 0003 | loss_train: 14.5036 loss_val: 12.7023 | f1_val: 0.05 | rmse_val: 1.7104
Epoch: 0004 | loss_train: 6.1196 loss_val: 4.2279 | f1_val: 0.07 | rmse_val: 1.3479
…
Train cost: 184.1822s
Loading 26th epoch
f1_test: 0.06 | rmse_test: 1.5972

>>> train.py: Namespace(attention_dropout=0.1, batch_size=32, dataset='AIDS700nef', device=1, dropout=0.1, end_lr=0.0001, epochs=2000, ffn_dim=64, hidden_dim=128, hops=3, log_path='log/nagphormer/AIDS700nef/n_layers', n_heads=8, n_layers=2, name=None, one_hot=False, path='data/nagphormer', patience=30, pe_dim=3, peak_lr=0.001, pyg_path='data/pyg/AIDS700nef', seed=3407, split=1.0, top_k=10, tot_updates=1000, warmup_updates=400, weight_decay=1e-05)

Graphs dropped for being too small: 15/560
TransformerModel(
  (att_embeddings_nope): Linear(in_features=32, out_features=128, bias=True)
  (layers): ModuleList(
    (0): EncoderLayer(
      (self_attention_norm): LayerNorm((128,), eps=1e-05, elementwise_affine=True)
      (self_attention): MultiHeadAttention(
        (linear_q): Linear(in_features=128, out_features=128, bias=True)
        (linear_k): Linear(in_features=128, out_features=128, bias=True)
        (linear_v): Linear(in_features=128, out_features=128, bias=True)
        (att_dropout): Dropout(p=0.1, inplace=False)
        (output_layer): Linear(in_features=128, out_features=128, bias=True)
      )
      (self_attention_dropout): Dropout(p=0.1, inplace=False)
      (ffn_norm): LayerNorm((128,), eps=1e-05, elementwise_affine=True)
      (ffn): FeedForwardNetwork(
        (layer1): Linear(in_features=128, out_features=256, bias=True)
        (gelu): GELU()
        (layer2): Linear(in_features=256, out_features=128, bias=True)
      )
      (ffn_dropout): Dropout(p=0.1, inplace=False)
    )
    (1): EncoderLayer(
      (self_attention_norm): LayerNorm((128,), eps=1e-05, elementwise_affine=True)
      (self_attention): MultiHeadAttention(
        (linear_q): Linear(in_features=128, out_features=128, bias=True)
        (linear_k): Linear(in_features=128, out_features=128, bias=True)
        (linear_v): Linear(in_features=128, out_features=128, bias=True)
        (att_dropout): Dropout(p=0.1, inplace=False)
        (output_layer): Linear(in_features=128, out_features=128, bias=True)
      )
      (self_attention_dropout): Dropout(p=0.1, inplace=False)
      (ffn_norm): LayerNorm((128,), eps=1e-05, elementwise_affine=True)
      (ffn): FeedForwardNetwork(
        (layer1): Linear(in_features=128, out_features=256, bias=True)
        (gelu): GELU()
        (layer2): Linear(in_features=256, out_features=128, bias=True)
      )
      (ffn_dropout): Dropout(p=0.1, inplace=False)
    )
  )
  (final_ln): LayerNorm((128,), eps=1e-05, elementwise_affine=True)
  (out_proj): Linear(in_features=128, out_features=64, bias=True)
  (attn_layer): Linear(in_features=256, out_features=1, bias=True)
  (Linear1): Linear(in_features=64, out_features=128, bias=True)
)
total params: 286274
Epoch: 0001 | loss_train: 84.2991 loss_val: 79.5978 | f1_val: 0.06 | rmse_val: 7.5956
Epoch: 0002 | loss_train: 80.4715 loss_val: 91.6962 | f1_val: 0.04 | rmse_val: 7.3312
Epoch: 0003 | loss_train: 76.6969 loss_val: 68.8048 | f1_val: 0.06 | rmse_val: 6.9103
Epoch: 0004 | loss_train: 64.5460 loss_val: 58.5072 | f1_val: 0.05 | rmse_val: 5.9569
…
Train cost: 325.2049s
Loading 37th epoch
f1_test: 0.07 | rmse_test: 1.2767

>>> train.py: Namespace(attention_dropout=0.1, batch_size=32, dataset='AIDS700nef', device=1, dropout=0.1, end_lr=0.0001, epochs=2000, ffn_dim=64, hidden_dim=128, hops=3, log_path='log/nagphormer/AIDS700nef/n_layers', n_heads=8, n_layers=3, name=None, one_hot=False, path='data/nagphormer', patience=30, pe_dim=3, peak_lr=0.001, pyg_path='data/pyg/AIDS700nef', seed=3407, split=1.0, top_k=10, tot_updates=1000, warmup_updates=400, weight_decay=1e-05)

Graphs dropped for being too small: 15/560
TransformerModel(
  (att_embeddings_nope): Linear(in_features=32, out_features=128, bias=True)
  (layers): ModuleList(
    (0): EncoderLayer(
      (self_attention_norm): LayerNorm((128,), eps=1e-05, elementwise_affine=True)
      (self_attention): MultiHeadAttention(
        (linear_q): Linear(in_features=128, out_features=128, bias=True)
        (linear_k): Linear(in_features=128, out_features=128, bias=True)
        (linear_v): Linear(in_features=128, out_features=128, bias=True)
        (att_dropout): Dropout(p=0.1, inplace=False)
        (output_layer): Linear(in_features=128, out_features=128, bias=True)
      )
      (self_attention_dropout): Dropout(p=0.1, inplace=False)
      (ffn_norm): LayerNorm((128,), eps=1e-05, elementwise_affine=True)
      (ffn): FeedForwardNetwork(
        (layer1): Linear(in_features=128, out_features=256, bias=True)
        (gelu): GELU()
        (layer2): Linear(in_features=256, out_features=128, bias=True)
      )
      (ffn_dropout): Dropout(p=0.1, inplace=False)
    )
    (1): EncoderLayer(
      (self_attention_norm): LayerNorm((128,), eps=1e-05, elementwise_affine=True)
      (self_attention): MultiHeadAttention(
        (linear_q): Linear(in_features=128, out_features=128, bias=True)
        (linear_k): Linear(in_features=128, out_features=128, bias=True)
        (linear_v): Linear(in_features=128, out_features=128, bias=True)
        (att_dropout): Dropout(p=0.1, inplace=False)
        (output_layer): Linear(in_features=128, out_features=128, bias=True)
      )
      (self_attention_dropout): Dropout(p=0.1, inplace=False)
      (ffn_norm): LayerNorm((128,), eps=1e-05, elementwise_affine=True)
      (ffn): FeedForwardNetwork(
        (layer1): Linear(in_features=128, out_features=256, bias=True)
        (gelu): GELU()
        (layer2): Linear(in_features=256, out_features=128, bias=True)
      )
      (ffn_dropout): Dropout(p=0.1, inplace=False)
    )
    (2): EncoderLayer(
      (self_attention_norm): LayerNorm((128,), eps=1e-05, elementwise_affine=True)
      (self_attention): MultiHeadAttention(
        (linear_q): Linear(in_features=128, out_features=128, bias=True)
        (linear_k): Linear(in_features=128, out_features=128, bias=True)
        (linear_v): Linear(in_features=128, out_features=128, bias=True)
        (att_dropout): Dropout(p=0.1, inplace=False)
        (output_layer): Linear(in_features=128, out_features=128, bias=True)
      )
      (self_attention_dropout): Dropout(p=0.1, inplace=False)
      (ffn_norm): LayerNorm((128,), eps=1e-05, elementwise_affine=True)
      (ffn): FeedForwardNetwork(
        (layer1): Linear(in_features=128, out_features=256, bias=True)
        (gelu): GELU()
        (layer2): Linear(in_features=256, out_features=128, bias=True)
      )
      (ffn_dropout): Dropout(p=0.1, inplace=False)
    )
  )
  (final_ln): LayerNorm((128,), eps=1e-05, elementwise_affine=True)
  (out_proj): Linear(in_features=128, out_features=64, bias=True)
  (attn_layer): Linear(in_features=256, out_features=1, bias=True)
  (Linear1): Linear(in_features=64, out_features=128, bias=True)
)
total params: 418754
Epoch: 0001 | loss_train: 84.3293 loss_val: 79.8537 | f1_val: 0.08 | rmse_val: 7.6192
Epoch: 0002 | loss_train: 80.8631 loss_val: 92.4156 | f1_val: 0.04 | rmse_val: 7.3891
Epoch: 0003 | loss_train: 77.4757 loss_val: 69.8740 | f1_val: 0.05 | rmse_val: 6.8318
Epoch: 0004 | loss_train: 65.4735 loss_val: 59.7657 | f1_val: 0.07 | rmse_val: 5.9465
…
Train cost: 354.4811s
Loading 25th epoch
f1_test: 0.07 | rmse_test: 0.9675

>>> train.py: Namespace(attention_dropout=0.1, batch_size=32, dataset='AIDS700nef', device=1, dropout=0.1, end_lr=0.0001, epochs=2000, ffn_dim=64, hidden_dim=128, hops=3, log_path='log/nagphormer/AIDS700nef/n_layers', n_heads=8, n_layers=4, name=None, one_hot=False, path='data/nagphormer', patience=30, pe_dim=3, peak_lr=0.001, pyg_path='data/pyg/AIDS700nef', seed=3407, split=1.0, top_k=10, tot_updates=1000, warmup_updates=400, weight_decay=1e-05)

Graphs dropped for being too small: 15/560
TransformerModel(
  (att_embeddings_nope): Linear(in_features=32, out_features=128, bias=True)
  (layers): ModuleList(
    (0): EncoderLayer(
      (self_attention_norm): LayerNorm((128,), eps=1e-05, elementwise_affine=True)
      (self_attention): MultiHeadAttention(
        (linear_q): Linear(in_features=128, out_features=128, bias=True)
        (linear_k): Linear(in_features=128, out_features=128, bias=True)
        (linear_v): Linear(in_features=128, out_features=128, bias=True)
        (att_dropout): Dropout(p=0.1, inplace=False)
        (output_layer): Linear(in_features=128, out_features=128, bias=True)
      )
      (self_attention_dropout): Dropout(p=0.1, inplace=False)
      (ffn_norm): LayerNorm((128,), eps=1e-05, elementwise_affine=True)
      (ffn): FeedForwardNetwork(
        (layer1): Linear(in_features=128, out_features=256, bias=True)
        (gelu): GELU()
        (layer2): Linear(in_features=256, out_features=128, bias=True)
      )
      (ffn_dropout): Dropout(p=0.1, inplace=False)
    )
    (1): EncoderLayer(
      (self_attention_norm): LayerNorm((128,), eps=1e-05, elementwise_affine=True)
      (self_attention): MultiHeadAttention(
        (linear_q): Linear(in_features=128, out_features=128, bias=True)
        (linear_k): Linear(in_features=128, out_features=128, bias=True)
        (linear_v): Linear(in_features=128, out_features=128, bias=True)
        (att_dropout): Dropout(p=0.1, inplace=False)
        (output_layer): Linear(in_features=128, out_features=128, bias=True)
      )
      (self_attention_dropout): Dropout(p=0.1, inplace=False)
      (ffn_norm): LayerNorm((128,), eps=1e-05, elementwise_affine=True)
      (ffn): FeedForwardNetwork(
        (layer1): Linear(in_features=128, out_features=256, bias=True)
        (gelu): GELU()
        (layer2): Linear(in_features=256, out_features=128, bias=True)
      )
      (ffn_dropout): Dropout(p=0.1, inplace=False)
    )
    (2): EncoderLayer(
      (self_attention_norm): LayerNorm((128,), eps=1e-05, elementwise_affine=True)
      (self_attention): MultiHeadAttention(
        (linear_q): Linear(in_features=128, out_features=128, bias=True)
        (linear_k): Linear(in_features=128, out_features=128, bias=True)
        (linear_v): Linear(in_features=128, out_features=128, bias=True)
        (att_dropout): Dropout(p=0.1, inplace=False)
        (output_layer): Linear(in_features=128, out_features=128, bias=True)
      )
      (self_attention_dropout): Dropout(p=0.1, inplace=False)
      (ffn_norm): LayerNorm((128,), eps=1e-05, elementwise_affine=True)
      (ffn): FeedForwardNetwork(
        (layer1): Linear(in_features=128, out_features=256, bias=True)
        (gelu): GELU()
        (layer2): Linear(in_features=256, out_features=128, bias=True)
      )
      (ffn_dropout): Dropout(p=0.1, inplace=False)
    )
    (3): EncoderLayer(
      (self_attention_norm): LayerNorm((128,), eps=1e-05, elementwise_affine=True)
      (self_attention): MultiHeadAttention(
        (linear_q): Linear(in_features=128, out_features=128, bias=True)
        (linear_k): Linear(in_features=128, out_features=128, bias=True)
        (linear_v): Linear(in_features=128, out_features=128, bias=True)
        (att_dropout): Dropout(p=0.1, inplace=False)
        (output_layer): Linear(in_features=128, out_features=128, bias=True)
      )
      (self_attention_dropout): Dropout(p=0.1, inplace=False)
      (ffn_norm): LayerNorm((128,), eps=1e-05, elementwise_affine=True)
      (ffn): FeedForwardNetwork(
        (layer1): Linear(in_features=128, out_features=256, bias=True)
        (gelu): GELU()
        (layer2): Linear(in_features=256, out_features=128, bias=True)
      )
      (ffn_dropout): Dropout(p=0.1, inplace=False)
    )
  )
  (final_ln): LayerNorm((128,), eps=1e-05, elementwise_affine=True)
  (out_proj): Linear(in_features=128, out_features=64, bias=True)
  (attn_layer): Linear(in_features=256, out_features=1, bias=True)
  (Linear1): Linear(in_features=64, out_features=128, bias=True)
)
total params: 551234
Epoch: 0001 | loss_train: 84.2537 loss_val: 79.5476 | f1_val: 0.05 | rmse_val: 7.3617
Epoch: 0002 | loss_train: 80.6171 loss_val: 92.2750 | f1_val: 0.06 | rmse_val: 7.4970
Epoch: 0003 | loss_train: 77.3948 loss_val: 69.4195 | f1_val: 0.06 | rmse_val: 6.8420
Epoch: 0004 | loss_train: 65.0366 loss_val: 58.1448 | f1_val: 0.06 | rmse_val: 5.9726
…
Train cost: 475.5789s
Loading 30th epoch
f1_test: 0.06 | rmse_test: 1.1480

>>> train.py: Namespace(attention_dropout=0.1, batch_size=32, dataset='AIDS700nef', device=1, dropout=0.1, end_lr=0.0001, epochs=2000, ffn_dim=64, hidden_dim=128, hops=3, log_path='log/nagphormer/AIDS700nef/n_layers', n_heads=8, n_layers=5, name=None, one_hot=False, path='data/nagphormer', patience=30, pe_dim=3, peak_lr=0.001, pyg_path='data/pyg/AIDS700nef', seed=3407, split=1.0, top_k=10, tot_updates=1000, warmup_updates=400, weight_decay=1e-05)

Graphs dropped for being too small: 15/560
TransformerModel(
  (att_embeddings_nope): Linear(in_features=32, out_features=128, bias=True)
  (layers): ModuleList(
    (0): EncoderLayer(
      (self_attention_norm): LayerNorm((128,), eps=1e-05, elementwise_affine=True)
      (self_attention): MultiHeadAttention(
        (linear_q): Linear(in_features=128, out_features=128, bias=True)
        (linear_k): Linear(in_features=128, out_features=128, bias=True)
        (linear_v): Linear(in_features=128, out_features=128, bias=True)
        (att_dropout): Dropout(p=0.1, inplace=False)
        (output_layer): Linear(in_features=128, out_features=128, bias=True)
      )
      (self_attention_dropout): Dropout(p=0.1, inplace=False)
      (ffn_norm): LayerNorm((128,), eps=1e-05, elementwise_affine=True)
      (ffn): FeedForwardNetwork(
        (layer1): Linear(in_features=128, out_features=256, bias=True)
        (gelu): GELU()
        (layer2): Linear(in_features=256, out_features=128, bias=True)
      )
      (ffn_dropout): Dropout(p=0.1, inplace=False)
    )
    (1): EncoderLayer(
      (self_attention_norm): LayerNorm((128,), eps=1e-05, elementwise_affine=True)
      (self_attention): MultiHeadAttention(
        (linear_q): Linear(in_features=128, out_features=128, bias=True)
        (linear_k): Linear(in_features=128, out_features=128, bias=True)
        (linear_v): Linear(in_features=128, out_features=128, bias=True)
        (att_dropout): Dropout(p=0.1, inplace=False)
        (output_layer): Linear(in_features=128, out_features=128, bias=True)
      )
      (self_attention_dropout): Dropout(p=0.1, inplace=False)
      (ffn_norm): LayerNorm((128,), eps=1e-05, elementwise_affine=True)
      (ffn): FeedForwardNetwork(
        (layer1): Linear(in_features=128, out_features=256, bias=True)
        (gelu): GELU()
        (layer2): Linear(in_features=256, out_features=128, bias=True)
      )
      (ffn_dropout): Dropout(p=0.1, inplace=False)
    )
    (2): EncoderLayer(
      (self_attention_norm): LayerNorm((128,), eps=1e-05, elementwise_affine=True)
      (self_attention): MultiHeadAttention(
        (linear_q): Linear(in_features=128, out_features=128, bias=True)
        (linear_k): Linear(in_features=128, out_features=128, bias=True)
        (linear_v): Linear(in_features=128, out_features=128, bias=True)
        (att_dropout): Dropout(p=0.1, inplace=False)
        (output_layer): Linear(in_features=128, out_features=128, bias=True)
      )
      (self_attention_dropout): Dropout(p=0.1, inplace=False)
      (ffn_norm): LayerNorm((128,), eps=1e-05, elementwise_affine=True)
      (ffn): FeedForwardNetwork(
        (layer1): Linear(in_features=128, out_features=256, bias=True)
        (gelu): GELU()
        (layer2): Linear(in_features=256, out_features=128, bias=True)
      )
      (ffn_dropout): Dropout(p=0.1, inplace=False)
    )
    (3): EncoderLayer(
      (self_attention_norm): LayerNorm((128,), eps=1e-05, elementwise_affine=True)
      (self_attention): MultiHeadAttention(
        (linear_q): Linear(in_features=128, out_features=128, bias=True)
        (linear_k): Linear(in_features=128, out_features=128, bias=True)
        (linear_v): Linear(in_features=128, out_features=128, bias=True)
        (att_dropout): Dropout(p=0.1, inplace=False)
        (output_layer): Linear(in_features=128, out_features=128, bias=True)
      )
      (self_attention_dropout): Dropout(p=0.1, inplace=False)
      (ffn_norm): LayerNorm((128,), eps=1e-05, elementwise_affine=True)
      (ffn): FeedForwardNetwork(
        (layer1): Linear(in_features=128, out_features=256, bias=True)
        (gelu): GELU()
        (layer2): Linear(in_features=256, out_features=128, bias=True)
      )
      (ffn_dropout): Dropout(p=0.1, inplace=False)
    )
    (4): EncoderLayer(
      (self_attention_norm): LayerNorm((128,), eps=1e-05, elementwise_affine=True)
      (self_attention): MultiHeadAttention(
        (linear_q): Linear(in_features=128, out_features=128, bias=True)
        (linear_k): Linear(in_features=128, out_features=128, bias=True)
        (linear_v): Linear(in_features=128, out_features=128, bias=True)
        (att_dropout): Dropout(p=0.1, inplace=False)
        (output_layer): Linear(in_features=128, out_features=128, bias=True)
      )
      (self_attention_dropout): Dropout(p=0.1, inplace=False)
      (ffn_norm): LayerNorm((128,), eps=1e-05, elementwise_affine=True)
      (ffn): FeedForwardNetwork(
        (layer1): Linear(in_features=128, out_features=256, bias=True)
        (gelu): GELU()
        (layer2): Linear(in_features=256, out_features=128, bias=True)
      )
      (ffn_dropout): Dropout(p=0.1, inplace=False)
    )
  )
  (final_ln): LayerNorm((128,), eps=1e-05, elementwise_affine=True)
  (out_proj): Linear(in_features=128, out_features=64, bias=True)
  (attn_layer): Linear(in_features=256, out_features=1, bias=True)
  (Linear1): Linear(in_features=64, out_features=128, bias=True)
)
total params: 683714
Epoch: 0001 | loss_train: 84.4781 loss_val: 79.9824 | f1_val: 0.05 | rmse_val: 7.4308
Epoch: 0002 | loss_train: 81.3909 loss_val: 93.7835 | f1_val: 0.05 | rmse_val: 7.3611
Epoch: 0003 | loss_train: 79.3025 loss_val: 72.1050 | f1_val: 0.04 | rmse_val: 7.1024
Epoch: 0004 | loss_train: 68.7966 loss_val: 63.8655 | f1_val: 0.05 | rmse_val: 6.4130
…
>>> run.py: Namespace(dataset='AIDS700nef', device=1, experiment='n_layers', log_path='log/nagphormer/AIDS700nef/n_layers', path='data/nagphormer', plot_path='plots/nagphormer/AIDS700nef/n_layers', pyg_path='data/pyg/AIDS700nef')

>>> train.py: Namespace(attention_dropout=0.1, batch_size=32, dataset='LINUX', device=1, dropout=0.1, end_lr=0.0001, epochs=2000, ffn_dim=64, hidden_dim=32, hops=3, log_path='log/nagphormer/LINUX/hidden_dim', n_heads=8, n_layers=1, name=None, one_hot=False, path='data/nagphormer', patience=30, pe_dim=3, peak_lr=0.001, pyg_path='data/pyg/LINUX', seed=3407, split=1.0, top_k=10, tot_updates=1000, warmup_updates=400, weight_decay=1e-05)

Graphs dropped for being too small: 63/800
TransformerModel(
  (att_embeddings_nope): Linear(in_features=3, out_features=32, bias=True)
  (layers): ModuleList(
    (0): EncoderLayer(
      (self_attention_norm): LayerNorm((32,), eps=1e-05, elementwise_affine=True)
      (self_attention): MultiHeadAttention(
        (linear_q): Linear(in_features=32, out_features=32, bias=True)
        (linear_k): Linear(in_features=32, out_features=32, bias=True)
        (linear_v): Linear(in_features=32, out_features=32, bias=True)
        (att_dropout): Dropout(p=0.1, inplace=False)
        (output_layer): Linear(in_features=32, out_features=32, bias=True)
      )
      (self_attention_dropout): Dropout(p=0.1, inplace=False)
      (ffn_norm): LayerNorm((32,), eps=1e-05, elementwise_affine=True)
      (ffn): FeedForwardNetwork(
        (layer1): Linear(in_features=32, out_features=64, bias=True)
        (gelu): GELU()
        (layer2): Linear(in_features=64, out_features=32, bias=True)
      )
      (ffn_dropout): Dropout(p=0.1, inplace=False)
    )
  )
  (final_ln): LayerNorm((32,), eps=1e-05, elementwise_affine=True)
  (out_proj): Linear(in_features=32, out_features=16, bias=True)
  (attn_layer): Linear(in_features=64, out_features=1, bias=True)
  (Linear1): Linear(in_features=16, out_features=32, bias=True)
)
total params: 9874
Epoch: 0001 | loss_train: 21.0046 loss_val: 20.8907 | f1_val: 0.06 | rmse_val: 3.4122
Epoch: 0002 | loss_train: 21.4949 loss_val: 19.7760 | f1_val: 0.06 | rmse_val: 3.5569
Epoch: 0003 | loss_train: 20.9164 loss_val: 24.7910 | f1_val: 0.05 | rmse_val: 3.4588
Epoch: 0004 | loss_train: 20.0875 loss_val: 18.6578 | f1_val: 0.06 | rmse_val: 3.2473
…
Optimization Finished!
Train cost: 582.6065s
Loading 62th epoch
f1_test: 0.05 | rmse_test: 0.8890

>>> train.py: Namespace(attention_dropout=0.1, batch_size=32, dataset='LINUX', device=1, dropout=0.1, end_lr=0.0001, epochs=2000, ffn_dim=64, hidden_dim=64, hops=3, log_path='log/nagphormer/LINUX/hidden_dim', n_heads=8, n_layers=1, name=None, one_hot=False, path='data/nagphormer', patience=30, pe_dim=3, peak_lr=0.001, pyg_path='data/pyg/LINUX', seed=3407, split=1.0, top_k=10, tot_updates=1000, warmup_updates=400, weight_decay=1e-05)

Graphs dropped for being too small: 63/800
TransformerModel(
  (att_embeddings_nope): Linear(in_features=3, out_features=64, bias=True)
  (layers): ModuleList(
    (0): EncoderLayer(
      (self_attention_norm): LayerNorm((64,), eps=1e-05, elementwise_affine=True)
      (self_attention): MultiHeadAttention(
        (linear_q): Linear(in_features=64, out_features=64, bias=True)
        (linear_k): Linear(in_features=64, out_features=64, bias=True)
        (linear_v): Linear(in_features=64, out_features=64, bias=True)
        (att_dropout): Dropout(p=0.1, inplace=False)
        (output_layer): Linear(in_features=64, out_features=64, bias=True)
      )
      (self_attention_dropout): Dropout(p=0.1, inplace=False)
      (ffn_norm): LayerNorm((64,), eps=1e-05, elementwise_affine=True)
      (ffn): FeedForwardNetwork(
        (layer1): Linear(in_features=64, out_features=128, bias=True)
        (gelu): GELU()
        (layer2): Linear(in_features=128, out_features=64, bias=True)
      )
      (ffn_dropout): Dropout(p=0.1, inplace=False)
    )
  )
  (final_ln): LayerNorm((64,), eps=1e-05, elementwise_affine=True)
  (out_proj): Linear(in_features=64, out_features=32, bias=True)
  (attn_layer): Linear(in_features=128, out_features=1, bias=True)
  (Linear1): Linear(in_features=32, out_features=64, bias=True)
)
total params: 38178
Epoch: 0001 | loss_train: 21.0651 loss_val: 20.8474 | f1_val: 0.04 | rmse_val: 3.4700
Epoch: 0002 | loss_train: 21.2648 loss_val: 19.2601 | f1_val: 0.04 | rmse_val: 3.4070
Epoch: 0003 | loss_train: 20.0553 loss_val: 23.0543 | f1_val: 0.07 | rmse_val: 3.1749
Epoch: 0004 | loss_train: 17.7282 loss_val: 14.5773 | f1_val: 0.07 | rmse_val: 2.6866
…
Optimization Finished!
Train cost: 343.5002s
Loading 17th epoch
f1_test: 0.06 | rmse_test: 1.1806

>>> train.py: Namespace(attention_dropout=0.1, batch_size=32, dataset='LINUX', device=1, dropout=0.1, end_lr=0.0001, epochs=2000, ffn_dim=64, hidden_dim=256, hops=3, log_path='log/nagphormer/LINUX/hidden_dim', n_heads=8, n_layers=1, name=None, one_hot=False, path='data/nagphormer', patience=30, pe_dim=3, peak_lr=0.001, pyg_path='data/pyg/LINUX', seed=3407, split=1.0, top_k=10, tot_updates=1000, warmup_updates=400, weight_decay=1e-05)

Graphs dropped for being too small: 63/800
TransformerModel(
  (att_embeddings_nope): Linear(in_features=3, out_features=256, bias=True)
  (layers): ModuleList(
    (0): EncoderLayer(
      (self_attention_norm): LayerNorm((256,), eps=1e-05, elementwise_affine=True)
      (self_attention): MultiHeadAttention(
        (linear_q): Linear(in_features=256, out_features=256, bias=True)
        (linear_k): Linear(in_features=256, out_features=256, bias=True)
        (linear_v): Linear(in_features=256, out_features=256, bias=True)
        (att_dropout): Dropout(p=0.1, inplace=False)
        (output_layer): Linear(in_features=256, out_features=256, bias=True)
      )
      (self_attention_dropout): Dropout(p=0.1, inplace=False)
      (ffn_norm): LayerNorm((256,), eps=1e-05, elementwise_affine=True)
      (ffn): FeedForwardNetwork(
        (layer1): Linear(in_features=256, out_features=512, bias=True)
        (gelu): GELU()
        (layer2): Linear(in_features=512, out_features=256, bias=True)
      )
      (ffn_dropout): Dropout(p=0.1, inplace=False)
    )
  )
  (final_ln): LayerNorm((256,), eps=1e-05, elementwise_affine=True)
  (out_proj): Linear(in_features=256, out_features=128, bias=True)
  (attn_layer): Linear(in_features=512, out_features=1, bias=True)
  (Linear1): Linear(in_features=128, out_features=256, bias=True)
)
total params: 595074
Epoch: 0001 | loss_train: 19.3056 loss_val: 16.3491 | f1_val: 0.06 | rmse_val: 3.1420
Epoch: 0002 | loss_train: 14.1486 loss_val: 7.6585 | f1_val: 0.06 | rmse_val: 1.6665
Epoch: 0003 | loss_train: 5.9760 loss_val: 4.4650 | f1_val: 0.06 | rmse_val: 1.6670
Epoch: 0004 | loss_train: 4.2407 loss_val: 3.8770 | f1_val: 0.06 | rmse_val: 0.9892
…
Optimization Finished!
Train cost: 783.5836s
Loading 6th epoch
f1_test: 0.05 | rmse_test: 0.9836

>>> train.py: Namespace(attention_dropout=0.1, batch_size=32, dataset='LINUX', device=1, dropout=0.1, end_lr=0.0001, epochs=2000, ffn_dim=64, hidden_dim=512, hops=3, log_path='log/nagphormer/LINUX/hidden_dim', n_heads=8, n_layers=1, name=None, one_hot=False, path='data/nagphormer', patience=30, pe_dim=3, peak_lr=0.001, pyg_path='data/pyg/LINUX', seed=3407, split=1.0, top_k=10, tot_updates=1000, warmup_updates=400, weight_decay=1e-05)

Graphs dropped for being too small: 63/800
TransformerModel(
  (att_embeddings_nope): Linear(in_features=3, out_features=512, bias=True)
  (layers): ModuleList(
    (0): EncoderLayer(
      (self_attention_norm): LayerNorm((512,), eps=1e-05, elementwise_affine=True)
      (self_attention): MultiHeadAttention(
        (linear_q): Linear(in_features=512, out_features=512, bias=True)
        (linear_k): Linear(in_features=512, out_features=512, bias=True)
        (linear_v): Linear(in_features=512, out_features=512, bias=True)
        (att_dropout): Dropout(p=0.1, inplace=False)
        (output_layer): Linear(in_features=512, out_features=512, bias=True)
      )
      (self_attention_dropout): Dropout(p=0.1, inplace=False)
      (ffn_norm): LayerNorm((512,), eps=1e-05, elementwise_affine=True)
      (ffn): FeedForwardNetwork(
        (layer1): Linear(in_features=512, out_features=1024, bias=True)
        (gelu): GELU()
        (layer2): Linear(in_features=1024, out_features=512, bias=True)
      )
      (ffn_dropout): Dropout(p=0.1, inplace=False)
    )
  )
  (final_ln): LayerNorm((512,), eps=1e-05, elementwise_affine=True)
  (out_proj): Linear(in_features=512, out_features=256, bias=True)
  (attn_layer): Linear(in_features=1024, out_features=1, bias=True)
  (Linear1): Linear(in_features=256, out_features=512, bias=True)
)
total params: 2369794
Epoch: 0001 | loss_train: 16.4264 loss_val: 8.3641 | f1_val: 0.07 | rmse_val: 1.7657
Epoch: 0002 | loss_train: 6.1343 loss_val: 4.8785 | f1_val: 0.06 | rmse_val: 1.5942
Epoch: 0003 | loss_train: 4.5406 loss_val: 4.3803 | f1_val: 0.05 | rmse_val: 1.2331
Epoch: 0004 | loss_train: 4.0448 loss_val: 4.1911 | f1_val: 0.05 | rmse_val: 1.3694
…
>>> run.py: Namespace(dataset='LINUX', device=1, experiment='hidden_dim', log_path='log/nagphormer/LINUX/hidden_dim', path='data/nagphormer', plot_path='plots/nagphormer/LINUX/hidden_dim', pyg_path='data/pyg/LINUX')

>>> train.py: Namespace(attention_dropout=0.1, batch_size=32, dataset='AIDS700nef', device=1, dropout=0.1, end_lr=0.0001, epochs=2000, ffn_dim=64, hidden_dim=32, hops=3, log_path='log/nagphormer/AIDS700nef/hidden_dim', n_heads=8, n_layers=1, name=None, one_hot=False, path='data/nagphormer', patience=30, pe_dim=3, peak_lr=0.001, pyg_path='data/pyg/AIDS700nef', seed=3407, split=1.0, top_k=10, tot_updates=1000, warmup_updates=400, weight_decay=1e-05)

Graphs dropped for being too small: 15/560
TransformerModel(
  (att_embeddings_nope): Linear(in_features=32, out_features=32, bias=True)
  (layers): ModuleList(
    (0): EncoderLayer(
      (self_attention_norm): LayerNorm((32,), eps=1e-05, elementwise_affine=True)
      (self_attention): MultiHeadAttention(
        (linear_q): Linear(in_features=32, out_features=32, bias=True)
        (linear_k): Linear(in_features=32, out_features=32, bias=True)
        (linear_v): Linear(in_features=32, out_features=32, bias=True)
        (att_dropout): Dropout(p=0.1, inplace=False)
        (output_layer): Linear(in_features=32, out_features=32, bias=True)
      )
      (self_attention_dropout): Dropout(p=0.1, inplace=False)
      (ffn_norm): LayerNorm((32,), eps=1e-05, elementwise_affine=True)
      (ffn): FeedForwardNetwork(
        (layer1): Linear(in_features=32, out_features=64, bias=True)
        (gelu): GELU()
        (layer2): Linear(in_features=64, out_features=32, bias=True)
      )
      (ffn_dropout): Dropout(p=0.1, inplace=False)
    )
  )
  (final_ln): LayerNorm((32,), eps=1e-05, elementwise_affine=True)
  (out_proj): Linear(in_features=32, out_features=16, bias=True)
  (attn_layer): Linear(in_features=64, out_features=1, bias=True)
  (Linear1): Linear(in_features=16, out_features=32, bias=True)
)
total params: 10802
Epoch: 0001 | loss_train: 84.7832 loss_val: 81.1365 | f1_val: 0.05 | rmse_val: 7.6632
Epoch: 0002 | loss_train: 83.3697 loss_val: 97.4165 | f1_val: 0.06 | rmse_val: 7.6557
Epoch: 0003 | loss_train: 84.3156 loss_val: 79.4907 | f1_val: 0.06 | rmse_val: 7.3398
Epoch: 0004 | loss_train: 80.8588 loss_val: 82.7160 | f1_val: 0.05 | rmse_val: 7.6050
…
Train cost: 355.0725s
Loading 78th epoch
f1_test: 0.06 | rmse_test: 0.9976

>>> train.py: Namespace(attention_dropout=0.1, batch_size=32, dataset='AIDS700nef', device=1, dropout=0.1, end_lr=0.0001, epochs=2000, ffn_dim=64, hidden_dim=64, hops=3, log_path='log/nagphormer/AIDS700nef/hidden_dim', n_heads=8, n_layers=1, name=None, one_hot=False, path='data/nagphormer', patience=30, pe_dim=3, peak_lr=0.001, pyg_path='data/pyg/AIDS700nef', seed=3407, split=1.0, top_k=10, tot_updates=1000, warmup_updates=400, weight_decay=1e-05)

Graphs dropped for being too small: 15/560
TransformerModel(
  (att_embeddings_nope): Linear(in_features=32, out_features=64, bias=True)
  (layers): ModuleList(
    (0): EncoderLayer(
      (self_attention_norm): LayerNorm((64,), eps=1e-05, elementwise_affine=True)
      (self_attention): MultiHeadAttention(
        (linear_q): Linear(in_features=64, out_features=64, bias=True)
        (linear_k): Linear(in_features=64, out_features=64, bias=True)
        (linear_v): Linear(in_features=64, out_features=64, bias=True)
        (att_dropout): Dropout(p=0.1, inplace=False)
        (output_layer): Linear(in_features=64, out_features=64, bias=True)
      )
      (self_attention_dropout): Dropout(p=0.1, inplace=False)
      (ffn_norm): LayerNorm((64,), eps=1e-05, elementwise_affine=True)
      (ffn): FeedForwardNetwork(
        (layer1): Linear(in_features=64, out_features=128, bias=True)
        (gelu): GELU()
        (layer2): Linear(in_features=128, out_features=64, bias=True)
      )
      (ffn_dropout): Dropout(p=0.1, inplace=False)
    )
  )
  (final_ln): LayerNorm((64,), eps=1e-05, elementwise_affine=True)
  (out_proj): Linear(in_features=64, out_features=32, bias=True)
  (attn_layer): Linear(in_features=128, out_features=1, bias=True)
  (Linear1): Linear(in_features=32, out_features=64, bias=True)
)
total params: 40034
Epoch: 0001 | loss_train: 82.4414 loss_val: 78.4750 | f1_val: 0.04 | rmse_val: 7.5075
Epoch: 0002 | loss_train: 80.0738 loss_val: 92.8407 | f1_val: 0.06 | rmse_val: 7.2635
Epoch: 0003 | loss_train: 79.0423 loss_val: 73.2472 | f1_val: 0.05 | rmse_val: 7.1023
Epoch: 0004 | loss_train: 72.4582 loss_val: 71.9306 | f1_val: 0.04 | rmse_val: 7.0335
…
Train cost: 181.6365s
Loading 26th epoch
f1_test: 0.06 | rmse_test: 1.5972

>>> train.py: Namespace(attention_dropout=0.1, batch_size=32, dataset='AIDS700nef', device=1, dropout=0.1, end_lr=0.0001, epochs=2000, ffn_dim=64, hidden_dim=256, hops=3, log_path='log/nagphormer/AIDS700nef/hidden_dim', n_heads=8, n_layers=1, name=None, one_hot=False, path='data/nagphormer', patience=30, pe_dim=3, peak_lr=0.001, pyg_path='data/pyg/AIDS700nef', seed=3407, split=1.0, top_k=10, tot_updates=1000, warmup_updates=400, weight_decay=1e-05)

Graphs dropped for being too small: 15/560
TransformerModel(
  (att_embeddings_nope): Linear(in_features=32, out_features=256, bias=True)
  (layers): ModuleList(
    (0): EncoderLayer(
      (self_attention_norm): LayerNorm((256,), eps=1e-05, elementwise_affine=True)
      (self_attention): MultiHeadAttention(
        (linear_q): Linear(in_features=256, out_features=256, bias=True)
        (linear_k): Linear(in_features=256, out_features=256, bias=True)
        (linear_v): Linear(in_features=256, out_features=256, bias=True)
        (att_dropout): Dropout(p=0.1, inplace=False)
        (output_layer): Linear(in_features=256, out_features=256, bias=True)
      )
      (self_attention_dropout): Dropout(p=0.1, inplace=False)
      (ffn_norm): LayerNorm((256,), eps=1e-05, elementwise_affine=True)
      (ffn): FeedForwardNetwork(
        (layer1): Linear(in_features=256, out_features=512, bias=True)
        (gelu): GELU()
        (layer2): Linear(in_features=512, out_features=256, bias=True)
      )
      (ffn_dropout): Dropout(p=0.1, inplace=False)
    )
  )
  (final_ln): LayerNorm((256,), eps=1e-05, elementwise_affine=True)
  (out_proj): Linear(in_features=256, out_features=128, bias=True)
  (attn_layer): Linear(in_features=512, out_features=1, bias=True)
  (Linear1): Linear(in_features=128, out_features=256, bias=True)
)
total params: 602498
Epoch: 0001 | loss_train: 83.7752 loss_val: 75.4847 | f1_val: 0.05 | rmse_val: 7.2845
Epoch: 0002 | loss_train: 72.0016 loss_val: 73.0202 | f1_val: 0.04 | rmse_val: 6.1837
Epoch: 0003 | loss_train: 51.8470 loss_val: 33.4256 | f1_val: 0.08 | rmse_val: 4.0858
Epoch: 0004 | loss_train: 20.1969 loss_val: 7.7119 | f1_val: 0.06 | rmse_val: 1.0513
…
Train cost: 146.0586s
Loading 3th epoch
f1_test: 0.06 | rmse_test: 0.7509

>>> train.py: Namespace(attention_dropout=0.1, batch_size=32, dataset='AIDS700nef', device=1, dropout=0.1, end_lr=0.0001, epochs=2000, ffn_dim=64, hidden_dim=512, hops=3, log_path='log/nagphormer/AIDS700nef/hidden_dim', n_heads=8, n_layers=1, name=None, one_hot=False, path='data/nagphormer', patience=30, pe_dim=3, peak_lr=0.001, pyg_path='data/pyg/AIDS700nef', seed=3407, split=1.0, top_k=10, tot_updates=1000, warmup_updates=400, weight_decay=1e-05)

Graphs dropped for being too small: 15/560
TransformerModel(
  (att_embeddings_nope): Linear(in_features=32, out_features=512, bias=True)
  (layers): ModuleList(
    (0): EncoderLayer(
      (self_attention_norm): LayerNorm((512,), eps=1e-05, elementwise_affine=True)
      (self_attention): MultiHeadAttention(
        (linear_q): Linear(in_features=512, out_features=512, bias=True)
        (linear_k): Linear(in_features=512, out_features=512, bias=True)
        (linear_v): Linear(in_features=512, out_features=512, bias=True)
        (att_dropout): Dropout(p=0.1, inplace=False)
        (output_layer): Linear(in_features=512, out_features=512, bias=True)
      )
      (self_attention_dropout): Dropout(p=0.1, inplace=False)
      (ffn_norm): LayerNorm((512,), eps=1e-05, elementwise_affine=True)
      (ffn): FeedForwardNetwork(
        (layer1): Linear(in_features=512, out_features=1024, bias=True)
        (gelu): GELU()
        (layer2): Linear(in_features=1024, out_features=512, bias=True)
      )
      (ffn_dropout): Dropout(p=0.1, inplace=False)
    )
  )
  (final_ln): LayerNorm((512,), eps=1e-05, elementwise_affine=True)
  (out_proj): Linear(in_features=512, out_features=256, bias=True)
  (attn_layer): Linear(in_features=1024, out_features=1, bias=True)
  (Linear1): Linear(in_features=256, out_features=512, bias=True)
)
total params: 2384642
Epoch: 0001 | loss_train: 77.2434 loss_val: 55.8366 | f1_val: 0.06 | rmse_val: 5.9608
Epoch: 0002 | loss_train: 40.8035 loss_val: 19.7932 | f1_val: 0.05 | rmse_val: 1.7904
Epoch: 0003 | loss_train: 9.4044 loss_val: 12.9257 | f1_val: 0.05 | rmse_val: 3.3796
Epoch: 0004 | loss_train: 7.8744 loss_val: 8.2340 | f1_val: 0.05 | rmse_val: 0.8275
…
